Model/Bi_LSTM_HiddenSize_50_LearnRate_0_01.pth (torch, 87358 bytes, 9 tensors)

lstm.weight_ih_l0 f4 [200, 1]
0	0x3c08f46f	0.008359059
1	0x3d8e5b69	0.06951029
2	0xbde171d4	-0.11008039
3	0xbdc27190	-0.094943166
4	0xbd605b80	-0.05477476
5	0x3d1f5e24	0.03890814
6	0x3a9336b9	0.0011231519
7	0x3de2e05b	0.11077949
8	0xbc720f72	-0.01477419
9	0x3d2be343	0.04196478
10	0xbd2b0cb0	-0.041760147
11	0xbcedc2c9	-0.029023545
12	0xbe075e20	-0.132195
13	0xbddd87c8	-0.10816914
14	0xbd437d86	-0.04772713
15	0x3c7cc37f	0.015427469
16	0x3d70f9bc	0.058831915
17	0x3dadcf47	0.08486801
18	0xbdc66a05	-0.0968819
19	0xbd7b26de	-0.061316364
20	0x3d4a1127	0.049332764
21	0x3de0aca3	0.10970428
22	0xbcef7186	-0.029228937
23	0x3dc7d763	0.09757879
24	0xbcb61cde	-0.022230562
25	0x3c719a27	0.014746225
26	0x3e034593	0.12819509
27	0xbe073173	-0.13202457
28	0xbdb85393	-0.090003155
29	0xbd360ea4	-0.044447556
30	0xbd76fd54	-0.060300186
31	0x3dfa7643	0.12229588
32	0xbdc6466f	-0.09681403
33	0xbd8c3de4	-0.06847742
34	0xbdcb37a4	-0.09922722
35	0xbe0fe791	-0.1405318
36	0xbda86cea	-0.08223899
37	0x3df55403	0.119789146
38	0x3d876caa	0.06612523
39	0x3d8d441e	0.06897758
40	0x3c5361ea	0.0129017625
41	0xbd9ab486	-0.07553963
42	0x3ccd0c27	0.025030209
43	0xbe092592	-0.13393238
44	0xbddc0802	-0.10743715
45	0xbd8ca588	-0.0686751
46	0x3db3c501	0.0877781
47	0x3dc33bca	0.09532888
48	0xbd82aba2	-0.063803926
49	0x3b730e73	0.003708747
50	0x3dcbc044	0.09948781
51	0x3e0956a0	0.13411951
52	0x3d803a56	0.06261127
53	0x3cf4bc82	0.029875044
54	0x3dc19338	0.09451908
55	0xbda8ccfd	-0.082422234
56	0x3cf3f956	0.029781979
57	0xbde3596d	-0.11101041
58	0xbdcdd976	-0.10051243
59	0xbd8c62cb	-0.06854781
60	0x3d84e3a7	0.06488734
61	0x3d63831b	0.055544954
62	0xbda5e996	-0.081011936
63	0x3cf2a27a	0.02961849
64	0x3db5b9fe	0.08873366
65	0xbc1970f6	-0.009365311
66	0x3c002f29	0.007823744
67	0x3d0644b7	0.032780375
68	0x3db1d953	0.086840294
69	0x3e0b4eb6	0.13604245
70	0xbde34408	-0.1109696
71	0xbd77f58f	-0.060536917
72	0x3d632a42	0.055460222
73	0x3ddc9208	0.10770041
74	0x3dfd293b	0.1236138
75	0x3dff29c2	0.124591365
76	0x3ce7a61a	0.028277446
77	0xbdfd97fb	-0.123825036
78	0x3c46ffad	0.012145919
79	0xbdc5d54b	-0.09659823
80	0xbe0baac0	-0.13639355
81	0x3e00bfb9	0.12573136
82	0x3dd1fcb4	0.102532774
83	0xbe14b0a1	-0.14520504
84	0x3cd52a67	0.026021196
85	0xbd027338	-0.031848162
86	0xbcbbeb8c	-0.022939466
87	0xbd87c0d9	-0.0662858
88	0x3d6bf5bf	0.05760741
89	0xbdaa8fa5	-0.08328179
90	0x3d6c2e31	0.05766124
91	0x3d8c363b	0.06846281
92	0x3dd1b883	0.10240271
93	0x3d516e05	0.051130313
94	0xbe1512b9	-0.14557923
95	0xbdb40ab3	-0.08791103
96	0x3d8dc62d	0.06922565
97	0x3d25c5f1	0.040471975
98	0xbde3ca17	-0.1112253
99	0xbd9480fe	-0.07251166
100	0x3e6372e9	0.22211803
101	0x3e4bcc3d	0.1990213
102	0xbe443cbf	-0.19163798
103	0x3d30f94e	0.043206505
104	0xbdf7be6a	-0.120968655
105	0xbd9f9064	-0.07791212
106	0xbe57c06e	-0.210695
107	0xbe1f485b	-0.15554945
108	0xbd63882c	-0.055549785
109	0x3e049bbd	0.12950034
110	0xbe66687d	-0.22500797
111	0x3e2c031e	0.16798064
112	0xbc29db9b	-0.010367299
113	0x3eb5ccbc	0.35507762
114	0x3e7e92b7	0.24860655
115	0xbcfa5410	-0.030557662
116	0xbdbc515c	-0.091952056
117	0x3bbced7e	0.005765616
118	0x3d97af45	0.07406477
119	0xbbaa08e3	-0.0051890477
120	0x3d1fbfd0	0.039001286
121	0xbe00ab9e	-0.12565467
122	0xbe06545f	-0.13118123
123	0x3e287134	0.16449434
124	0xbe1b7572	-0.1518152
125	0xbdbca92d	-0.09211955
126	0xbd5d63de	-0.05405032
127	0xbe0f3ba7	-0.139876
128	0xbe14d215	-0.14533265
129	0xbe864fd1	-0.2623277
130	0xbe1b98f6	-0.15195069
131	0x3d303661	0.04302061
132	0xbe890c54	-0.26767218
133	0xbddf4d1b	-0.109033786
134	0x3e02aac9	0.12760462
135	0xbe45e5a6	-0.19325885
136	0x3d4b2b64	0.049601927
137	0xbd9f5d4b	-0.07781466
138	0x3dd19495	0.10233418
139	0x3e093098	0.13397443
140	0x3eb98212	0.36232048
141	0x3e37a7e2	0.17935136
142	0x3ea6ea6f	0.32600734
143	0x3d35bc9d	0.04436933
144	0xbeaac5f3	-0.33354148
145	0xbdda474a	-0.106581286
146	0x3e48d12e	0.19611046
147	0xbdd28121	-0.10278536
148	0xbc62a8e3	-0.013834211
149	0xbe5a700b	-0.21331804
150	0xbdf92400	-0.121650696
151	0xbe012c85	-0.12614639
152	0xbcaca0bb	-0.021072736
153	0x3db7dfc0	0.08978224
154	0x3d9be4b3	0.0761198
155	0xbe0abc18	-0.13548315
156	0x3dbc7eee	0.092038974
157	0xbde5d87c	-0.11222932
158	0xbd049442	-0.032367952
159	0xbd56d869	-0.05245248
160	0xbcd6e182	-0.026230577
161	0xbceeaffc	-0.02913665
162	0xbdfcc108	-0.12341505
163	0xbe0b95ca	-0.13631359
164	0xbc2a1ae0	-0.010382384
165	0x3c440ed8	0.01196643
166	0xbd7b3259	-0.061327312
167	0x3d5a2e9a	0.0532671
168	0xbe036a8a	-0.1283361
169	0xbc173ac0	-0.009230316
170	0x3dfa8686	0.122326896
171	0xbd89ee4a	-0.06734903
172	0x3e029bd5	0.12754758
173	0x3d26caf7	0.040720906
174	0xbe0236be	-0.12716195
175	0x3db6aafc	0.089193314
176	0xbc8464bd	-0.016161317
177	0xbd830a03	-0.06398394
178	0x3de58811	0.11207593
179	0xbdfbccef	-0.12294947
180	0x3c1e0651	0.009645061
181	0xbcf19fe8	-0.029495195
182	0x3dc2a150	0.09503424
183	0x3d11065e	0.035406463
184	0x3d8a5f0f	0.06756412
185	0x3d2bde20	0.04195988
186	0xbd09cd1b	-0.03364287
187	0xbd012424	-0.031528607
188	0xbde7da97	-0.113209896
189	0x3d9e03b2	0.077155486
190	0x3df30358	0.11865872
191	0x3dbe7127	0.09298926
192	0xbdc9a6a5	-0.09846238
193	0x3b892e4a	0.0041864263
194	0xbdd81ff8	-0.105529726
195	0xbd97a3ba	-0.07404275
196	0xbdabb181	-0.083834656
197	0x3d785f60	0.06063783
198	0xbdaec57a	-0.085337594
199	0x3bf05f62	0.0073355893

lstm.weight_hh_l0 f4 [200, 50]
0	0x3bd8f28c	0.0066207107
1	0x3dbb10b7	0.091340475
2	0xbddbcdef	-0.10732638
3	0xbdc5ff6c	-0.096678585
4	0xbda922e0	-0.08258605
5	0x3dca81cb	0.09888037
6	0xbd5241d1	-0.0513323
7	0x3df39832	0.11894263
8	0x3d51b372	0.051196523
9	0x3c967239	0.018365012
10	0xbabfe741	-0.0014641063
11	0xbce1ce8f	-0.027564315
12	0x3c90d507	0.017679704
13	0xbd021a94	-0.031763628
14	0xb91771f5	-0.00014442934
15	0x3c947b2c	0.01812514
16	0xbde33888	-0.11094767
17	0xbd97b217	-0.07407015
18	0x3de9f464	0.11423567
19	0xbdeaddb0	-0.11468065
20	0xbc1cdf46	-0.009574717
21	0x3e0f5709	0.13998045
22	0x3d503f48	0.0508416
23	0x3b8104ed	0.003937355
24	0xbdfc98e0	-0.12333846
25	0x3d8f18cd	0.06987152
26	0xbdce92f2	-0.10086621
27	0xbd25b254	-0.04045327
28	0xbd4339a5	-0.047662396
29	0xbcaf9397	-0.021432681
30	0x3ab3eb4f	0.0013726744
31	0x3def1c1e	0.11675285
32	0x3c8d06ff	0.01721525
33	0x3e01a3eb	0.12660186
34	0x3db204d7	0.086923294
35	0xbdb7650f	-0.08954822
36	0x3d82007e	0.0634775
37	0xbdccac51	-0.09993804
38	0xbd73b3a1	-0.05949748
39	0x3d2c480b	0.042060893
40	0x3d42f62c	0.04759805
41	0x3dd9bb1b	0.10631391
42	0xbd380d0e	-0.044934325
43	0x395c3a71	0.00021002606
44	0x3d93a199	0.07208557
45	0xbe0c9aa7	-0.1373087
46	0x3dd21402	0.102577224
47	0xbdf0b93c	-0.11754081
48	0x3aefe9c8	0.0018303925
49	0xbcca78c9	-0.024715798
50	0xbd97e916	-0.074175045
51	0x3c93f842	0.018062714
52	0x3def40fd	0.116823174
53	0xbd254355	-0.040347416
54	0xbdaba19f	-0.08380436
55	0xbd564bfd	-0.05231856
56	0xbe0f8611	-0.14015986
57	0x3d83a6df	0.064283125
58	0xbd8a3cd7	-0.067498855
59	0xbdc117aa	-0.09428342
60	0xbda66baa	-0.08126004
61	0x3da5c8d1	0.08094943
62	0x3d9a1b24	0.07524708
63	0x3ddcb64e	0.10776959
64	0x3d52b352	0.051440544
65	0xbd3e3768	-0.04643956
66	0xbd225e47	-0.03964069
67	0x3d2b81ee	0.041871957
68	0x3dedc749	0.11610276
69	0x3d1d18cb	0.038353723
70	0xbd87e30e	-0.06635104
71	0xbd86f638	-0.06589931
72	0xbe08bcb3	-0.13353233
73	0x3cf311f9	0.029671656
74	0xbda2e0c7	-0.07953029
75	0xbe00d08c	-0.12579554
76	0x3dfdfb74	0.124014765
77	0xbdbb72a0	-0.09152722
78	0xbc8212c6	-0.015878092
79	0x3d290622	0.041265614
80	0x3ba15128	0.0049230047
81	0xbdc2ead6	-0.09517448
82	0xbde910f7	-0.11380189
83	0x3de7ba65	0.11314849
84	0x3cb927fb	0.022602072
85	0x3df14b9f	0.11782002
86	0xbd420020	-0.0473634
87	0x3d2b656a	0.041844763
88	0xbd03f32e	-0.032214336
89	0xbbd30bf8	-0.006440636
90	0xbdb0f91b	-0.08641263
91	0x3d42251b	0.047398668
92	0x3d35e287	0.044405486
93	0xbb4f10cf	-0.0031595712
94	0xbcfe9d41	-0.031080844
95	0xbdb37936	-0.087633535
96	0x3dc79ba5	0.09746484
97	0xbdd899c0	-0.105762005
98	0x3d6d157f	0.05788183
99	0xbd448ebf	-0.047987696
100	0xbd8a5dc7	-0.06756168
101	0x3ccfa5ea	0.025347669
102	0xbd97401b	-0.07385274
103	0x3d082114	0.03323467
104	0x3ce082e5	0.027406165
105	0xbdd73f0a	-0.105100706
106	0x3cbd7851	0.02312866
107	0x3d761d15	0.06008633
108	0x3d661bba	0.056178786
109	0xbc8e7b2e	-0.017392721
110	0xbdee0076	-0.11621182
111	0xbcb0eb21	-0.021596493
112	0x3d495c68	0.04916039
113	0xbd52a260	-0.051424384
114	0x3d5ef97a	0.05443714
115	0x3dc18576	0.09449284
116	0xbd97df2a	-0.07415612
117	0x3ac0756e	0.0014683434
118	0x3d6f6c00	0.058452606
119	0x3c366483	0.011132362
120	0x3c4ca1ad	0.012489718
121	0x3c92df83	0.017928844
122	0xbde40333	-0.11133423
123	0x3c30790d	0.010771048
124	0x3dc71b74	0.09722033
125	0x3e026afa	0.12736121
126	0x3da9fc81	0.083001144
127	0x3c99dd76	0.018782359
128	0x3d870738	0.06593174
129	0xbd8d4037	-0.06897014
130	0xbdf00264	-0.11719206
131	0xbdf8e1b4	-0.121524245
132	0x3e1045f9	0.14089192
133	0x3db80f3c	0.08987281
134	0xbdc7ba99	-0.097523876
135	0x3d62d5e2	0.055379756
136	0x3ddad104	0.10684398
137	0x3e10dc83	0.14146619
138	0x3dfe1641	0.12406588
139	0x3de11912	0.1099111
140	0xbd021e11	-0.031766955
141	0xbd4b21e2	-0.04959286
142	0x3dee9c6b	0.11650928
143	0x3da21b08	0.07915312
144	0xbdaf13e2	-0.08548714
145	0x3e01925f	0.12653492
146	0x3d8c4aec	0.06850228
147	0x3d9c8e72	0.07644357
148	0xbdb5ceae	-0.08877312
149	0x3d2347d0	0.039863408
150	0xbd4b12d9	-0.04957852
151	0x3de38261	0.11108852
152	0xbcd0c309	-0.025483625
153	0x3d5eb2d6	0.05436977
154	0x3ccaf607	0.024775518
155	0x3d766f21	0.060164575
156	0xbd4599c9	-0.048242364
157	0x3d8c29d4	0.068439156
158	0xbdcafb59	-0.09911222
159	0x3d0335d1	0.032033745
160	0xbdc494ce	-0.09598695
161	0xbe0e6172	-0.1390436
162	0xbde94f79	-0.11392111
163	0x3de650be	0.11245869
164	0x3d9d1c0b	0.076713644
165	0x3e0735cf	0.1320412
166	0x3de801f4	0.113284975
167	0xbe0164e1	-0.12636138
168	0xbdc565f3	-0.09638586
169	0xbcba140f	-0.022714643
170	0xbdbc84a3	-0.09204986
171	0x3dc841d7	0.09778183
172	0xbddb756c	-0.10715756
173	0xbd8beb70	-0.068320155
174	0xbe0c1ee1	-0.13683654
175	0xbda51e48	-0.08062416
176	0x3dee1a0f	0.11626064
177	0x3dec5ee5	0.11541537
178	0x3dced506	0.10099225
179	0x3dde0169	0.10840113
180	0x3e005dd0	0.12535787
181	0xbd141d64	-0.03616084
182	0x3d7c802b	0.061645668
183	0x3e00abef	0.12565587
184	0x3d41dbfd	0.047328938
185	0x3e1056cc	0.1409561
186	0x3d96291a	0.07332058
187	0x3db3ca63	0.087788366
188	0xbd4a83cc	-0.049442098
189	0x3d8ba9a5	0.068194665
190	0x3c89d334	0.016824342
191	0xbd089a93	-0.03335054
192	0xbda258e0	-0.07927108
193	0xbda2219f	-0.07916569
194	0xbde099b3	-0.10966816
195	0x3dc2cdeb	0.09511932
196	0x3dceb73c	0.10093543
197	0xbc828235	-0.015931228
198	0xbda7a7fa	-0.08186336
199	0x3de013c3	0.10941269
200	0x3db8ed02	0.09029581
201	0x3c2d800d	0.010589612
202	0xbd889ac2	-0.06670143
203	0x3e04e400	0.129776
204	0x3d6d0eb7	0.05787536
205	0xbddbd309	-0.10733611
206	0x3e0aa944	0.13541132
207	0x3ddbe18b	0.10736378
208	0xbd535f9b	-0.05160485
209	0x3da2a8ca	0.0794235
210	0xbda48579	-0.080332704
211	0xbcb57d31	-0.022154422
212	0x3df5d2cf	0.12003099
213	0x3bc0bd8a	0.00588197
214	0xbdcd19fa	-0.1001472
215	0xbd42146c	-0.047382757
216	0xbd1d02df	-0.038332816
217	0xbcdfb55c	-0.027308159
218	0x3c5dd8fe	0.0135405045
219	0x3e05ee11	0.13079096
220	0x3bf2988b	0.0074034384
221	0xbdb3127b	-0.08743759
222	0x3becf345	0.0072311484
223	0x3d8b387a	0.067978814
224	0x3d8ff88b	0.07029828
225	0xbe045d45	-0.12926205
226	0xbccf1ba3	-0.025281733
227	0xbdd73d57	-0.105097465
228	0xbd773565	-0.060353655
229	0x3d5091b1	0.050920192
230	0xbdcdbde7	-0.100459866
231	0x3d574837	0.052559104
232	0x3df5b7a6	0.11997919
233	0x3c171392	0.0092209745
234	0xbdc10826	-0.09425382
235	0xbd4fc1cb	-0.050721925
236	0x3cfced4d	0.030874873
237	0xbddcdd75	-0.10784427
238	0x3d8fc0c9	0.07019193
239	0xbe038307	-0.12842952
240	0xbe0b462a	-0.13600984
241	0xbe0caaa4	-0.13736969
242	0xbceb4396	-0.02871875
243	0x3dc2d6fa	0.0951366
244	0xbe09118e	-0.13385603
245	0x3df107d0	0.11769068
246	0xbd67ad71	-0.05656189
247	0x3d2a34fd	0.04155444
248	0x3bd3d137	0.0064641493
249	0xbe026b9d	-0.12736364
250	0x3df05b0e	0.11736117
251	0x3d9bf8a0	0.07615781
252	0x3e0fe65c	0.14052719
253	0x3d926f13	0.07150092
254	0xbdbf4850	-0.093399644
255	0x3df1b410	0.11801922

lstm.bias_ih_l0 f4 [200]
0	0xbd9bfdab	-0.07616743
1	0xbcf9a06d	-0.030472005
2	0xbd41583e	-0.047203295
3	0x3dad9c50	0.0847708
4	0xbd811844	-0.063034564
5	0xbd7986d2	-0.06091959
6	0x3d862fd6	0.06552093
7	0xbb9b2ba8	-0.004735429
8	0x3c704872	0.01466571
9	0xbdcf36b9	-0.101178594
10	0xbd58d79c	-0.052939996
11	0x3d9be75f	0.0761249
12	0x3d80e1e1	0.06293083
13	0xbdcebefd	-0.10095022
14	0xbdafe4c0	-0.085885525
15	0x3d10d088	0.03535512
16	0xbddfd07b	-0.10928436
17	0xbd993a24	-0.074817926
18	0xbda1ea8c	-0.079060644
19	0xbdde8c84	-0.10866645
20	0xbd940089	-0.072266646
21	0x3dcf00e3	0.10107591
22	0xbe039ed0	-0.12853551
23	0x3dc28406	0.09497838
24	0xbdfb5633	-0.122723006
25	0xbd1aa215	-0.03775223
26	0xbd40de62	-0.04708708
27	0x3dbd9f86	0.09258942
28	0xbde3ba5e	-0.11119531
29	0xbd5c5e7b	-0.05380104
30	0xbe07eda9	-0.13274254
31	0xbd29be0d	-0.041441012
32	0x3d8bc7b7	0.06825202
33	0x3e0c1738	0.13680732
34	0x3dfd3694	0.123639256
35	0xbcfd71c9	-0.030938046
36	0xbd997322	-0.07492663
37	0x3d02cc76	0.03193327
38	0x3dc43fda	0.09582491
39	0x3e03f3f9	0.12886037
40	0x3df8a163	0.12140157
41	0x3ac3d799	0.0014941572
42	0xbdd1c1e7	-0.10242062
43	0xbdae3911	-0.08506978
44	0x3dd81628	0.10551101
45	0xbdf76d39	-0.120813794
46	0xbdc91874	-0.09819117
47	0xbdb3e70c	-0.08784303
48	0xbd1b9652	-0.037985153
49	0x3d8c1589	0.06840045
50	0x3dcca8fb	0.09993168
51	0x3de89ca5	0.113580026
52	0x3d8dc253	0.0692183
53	0x3cd91244	0.026497968
54	0xbd1d8f26	-0.038466595
55	0xbdb0a10a	-0.08624466
56	0xbd8b9aeb	-0.06816658
57	0xbaded1b4	-0.0016999752
58	0x3dfbf2af	0.123021476
59	0xbd42245b	-0.047397953
60	0xbc70a0d7	-0.014686785
61	0xb9962e61	-0.00028644784
62	0xbd87394b	-0.06602725
63	0xbd4799cd	-0.04873066
64	0x3d4b3f2d	0.049620796
65	0xbdd8ba95	-0.10582463
66	0xbbea6fec	-0.0071544554
67	0xbd0b6dde	-0.034040324
68	0x3d01a962	0.031655677
69	0xbc98a3d3	-0.018632805
70	0xbd9dc72c	-0.07704005
71	0xbd272297	-0.04080447
72	0xbd08f3c6	-0.033435605
73	0x3d797a81	0.060907844
74	0x3cfe629d	0.031052882
75	0xbd32ca83	-0.04365016
76	0x3de33163	0.11093404
77	0x3c774d53	0.015094119
78	0x3da3990d	0.079881765
79	0xbd299f8e	-0.04141193
80	0xbdec85bc	-0.11548945
81	0xbe0b9510	-0.13631082
82	0xbd1b5712	-0.037924834
83	0x3db7f81e	0.089828715
84	0x3db88659	0.0901
85	0x3d48236c	0.048861906
86	0x3d249813	0.04018409
87	0xbdc21342	-0.094763294
88	0xbd22a9ee	-0.03971284
89	0x3c97f81b	0.018550923
90	0xbdd76e9f	-0.10519146
91	0xbe005add	-0.12534662
92	0xbdc607f3	-0.09669485
93	0x3d35b644	0.044363275
94	0x387afad8	5.983826e-05
95	0xbcd2cfb4	-0.025733806
96	0x3dbca403	0.0921097
97	0xbdc08428	-0.09400207
98	0xbdb389fd	-0.087665536
99	0xbd0360f7	-0.032074895
100	0x3d5a8695	0.053351004
101	0x3cec8135	0.028870204
102	0xbdda95ed	-0.10673127
103	0x3d92b413	0.07163253
104	0xbd945f3c	-0.07244727
105	0x3dfdf9b4	0.12401143
106	0x3d769bac	0.060207054
107	0x3cfc8992	0.030827317
108	0x3df2d6e7	0.118573956
109	0x3cf6d7f3	0.03013227
110	0xbe01f83b	-0.12692349
111	0x3d7cd429	0.06172577
112	0x3df68674	0.12037364
113	0xbd789dd2	-0.060697384
114	0x3d9aeb5a	0.07564421
115	0x3dd2e483	0.102974914
116	0xbcd62b1d	-0.026143605
117	0xbb0f302c	-0.002184878
118	0xbcdb1170	-0.026741713
119	0x3dfe3786	0.12412934
120	0x3d18d348	0.03731087
121	0x3da8bb21	0.08238817
122	0xbe0f2e67	-0.13982545
123	0xbcca155a	-0.024668384
124	0xbda58146	-0.080812976
125	0x3d0ee71f	0.034888383
126	0xbd3a4284	-0.04547359
127	0x3d42c120	0.04754746
128	0x3d9399e1	0.072070844
129	0xbcf0c107	-0.029388918
130	0x3c910e69	0.017707067
131	0xbde2242a	-0.11042054
132	0xbd259322	-0.04042352
133	0x3c877a35	0.016537765
134	0x3dc3225e	0.095280394
135	0x3d81bac3	0.0633445
136	0x3d307c11	0.04308707
137	0x3d8b279e	0.06794666
138	0x3dc6d7b5	0.097091116
139	0x3c1750b0	0.009235546
140	0x3e024be5	0.12724264
141	0xbd99cac4	-0.075093776
142	0x3d0a07d6	0.03369888
143	0x3a9e1116	0.0012059535
144	0x3dfc06cb	0.12305983
145	0xbddebe65	-0.108761586
146	0x3d8a6447	0.06757408
147	0xbddc4508	-0.10755354
148	0xbd52ef61	-0.05149782
149	0xbc7f577a	-0.015584821
150	0xbd2bc33d	-0.04193424
151	0xbd81c271	-0.06335915
152	0xbde052c3	-0.109532855
153	0xbe04752f	-0.12935327
154	0xbcf5be91	-0.029998096
155	0x3ded93c0	0.11600447
156	0xbd078029	-0.033081207
157	0xbdbcc1de	-0.09216665
158	0xbd21427d	-0.03937005
159	0xbde52e4e	-0.111904725
160	0x3a5b7ae4	0.0008372499
161	0x3df8b807	0.121444754
162	0xbe0fc8ae	-0.14041397
163	0x3dd181bd	0.10229824
164	0x3df1125b	0.11771079
165	0x3dc5c283	0.09656241
166	0xbda809dc	-0.082050055
167	0x3c879ddd	0.016554767
168	0x3da503f1	0.080573924
169	0xbdf9c5d9	-0.121959396
170	0x3dd8e855	0.10591189
171	0xbc178438	-0.009247832
172	0xbdfb8bc1	-0.12282515
173	0xbd0fdcbf	-0.03512263
174	0x3b80c392	0.003929564
175	0xbd6a7c8f	-0.057247695
176	0xbd6a70b0	-0.057236373
177	0xbc40e719	-0.011773848
178	0x3d54cd49	0.051953588
179	0x3da1fcdc	0.07909557
180	0xbe069c01	-0.13145448
181	0xbc124809	-0.008928307
182	0x3d45d06f	0.04829448
183	0x3df0fb1b	0.117666446
184	0x3d935641	0.07194186
185	0x3dd28ffa	0.102813676
186	0x3d2d81c9	0.0423601
187	0xbc5c1307	-0.013432271
188	0xbd9b30a1	-0.075776346
189	0xbd66e378	-0.056369275
190	0x3d922267	0.07135468
191	0xbcc92507	-0.024553789
192	0x3e144ce2	0.14482453
193	0xbdb43d6b	-0.08800777
194	0x3dee5337	0.11636966
195	0x3db8ffbf	0.09033155
196	0x3dc930f0	0.09823787
197	0x3de80816	0.11329667
198	0xbda777a9	-0.0817712
199	0x3dad3cf7	0.08458894

lstm.bias_hh_l0 f4 [200]
0	0xbe0b30d5	-0.13592847
1	0xbd8e829f	-0.06958508
2	0xbc89e59c	-0.01683312
3	0x3decc1f3	0.115604304
4	0xbcf2d938	-0.029644594
5	0xbde72fe2	-0.1128843
6	0xbdf70b07	-0.1206265
7	0x3bbbbd83	0.0057293787
8	0x3c3dd079	0.011585348
9	0x3d1fa8d8	0.03897938
10	0xbcf852d8	-0.03031294
11	0x3d55f6a6	0.052237175
12	0x3c51839d	0.012787727
13	0xbc0a3d9a	-0.0084375385
14	0x3dad8d31	0.08474196
15	0xbddcc17a	-0.1077909
16	0xbd92545e	-0.07144998
17	0x3d0f4480	0.034977436
18	0xbd21aa5b	-0.039469104
19	0xbb88045b	-0.00415091
20	0xbd5c953d	-0.053853262
21	0x3da8eef0	0.08248699
22	0x3e09fd5f	0.1347556
23	0x3dfaa5ce	0.12238656
24	0x3d15aa2a	0.036539234
25	0xbdb6c669	-0.089245625
26	0xbd49ca05	-0.049264926
27	0xbd7be5e2	-0.06149853
28	0xbcc3e495	-0.023912707
29	0xbd5cee53	-0.05393822
30	0x3db9fab3	0.0908102
31	0xbe093cb4	-0.13402063
32	0x3c94b8a8	0.018154457
33	0x3dd76c1f	0.10518669
34	0xbde36c1f	-0.11104607
35	0xbc944562	-0.01809949
36	0x3d9f94d9	0.07792062
37	0xbd481aa2	-0.048853524
38	0xbd850556	-0.064951584
39	0x3d9eb425	0.077492036
40	0xbd961af4	-0.0732936
41	0x3e14a303	0.14515309
42	0x3e10a8b3	0.14126854
43	0x3be0258d	0.006840414
44	0x3d2c8bfe	0.042125694
45	0xbd946418	-0.07245654
46	0x3d1d0a8b	0.038340133
47	0xbdd6593c	-0.10466239
48	0xbd16f446	-0.03685405
49	0x3dec98b9	0.11552567
50	0x3d30dd7c	0.043179974
51	0x3ddb3db7	0.107051305
52	0x3dc6706c	0.096894115
53	0x3e04943e	0.12947175
54	0x3d0d7e1b	0.03454409
55	0xbdd37131	-0.10324324
56	0xbdfe43a5	-0.12415246
57	0x3db8e6ce	0.090283975
58	0x3dec7286	0.11545281
59	0x3e11970b	0.14217775
60	0xbdb773fc	-0.08957669
61	0x3e07ef05	0.13274772
62	0xbd582db7	-0.052777972
63	0x3d63059d	0.055425275
64	0x3ddc064c	0.107433885
65	0xbde97855	-0.11399905
66	0xbe099129	-0.1343428
67	0x3dc0c5a1	0.09412695
68	0xbe0658da	-0.13119832
69	0x3d8b343c	0.06797072
70	0x3da19078	0.07888883
71	0x3dd7c17f	0.10534953
72	0x3ba4d50f	0.0050302814
73	0xbd111101	-0.035416607
74	0x3c8d0126	0.017212462
75	0xbc9e832f	-0.019349663
76	0xbe086167	-0.13318406
77	0x3d130f43	0.035903227
78	0xbda482c7	-0.08032756
79	0x3defb3a4	0.117041856
80	0xbd7dd385	-0.0619693
81	0xbce149cd	-0.027501011
82	0xbdcdc2f6	-0.100469515
83	0x3e081aa0	0.13291407
84	0x3daa6e9f	0.083218805
85	0x3e04b357	0.12959038
86	0x3da96758	0.082716644
87	0xbdb206da	-0.08692713
88	0x3e0af5cc	0.13570327
89	0xbc9058e6	-0.017620515
90	0x3e17e764	0.14834362
91	0x3cbd54a5	0.02311165
92	0x3dcd19b0	0.10014665
93	0xbd63d167	-0.055619624
94	0x3d96a485	0.07355598
95	0xbad3edf0	-0.0016168933
96	0xbddeb5f1	-0.10874546
97	0x3de18dfa	0.11013408
98	0xbd9e13b5	-0.077186026
99	0xbdbf5b6f	-0.093436114
100	0x3da3227f	0.07965564
101	0xbdfd19a7	-0.123584084
102	0x3d833874	0.06407252
103	0x3db147cd	0.08656273
104	0xbc5265b6	-0.012841633
105	0xbdf5ffb6	-0.120116636
106	0xbdd9711e	-0.106172785
107	0xbc5917bd	-0.013250289
108	0xbcac08e1	-0.021000328
109	0x3d9c524a	0.07632883
110	0x3e009db5	0.1256016
111	0xbda7cf78	-0.081938684
112	0xbd5de85e	-0.05417668
113	0xbde7ae10	-0.11312497
114	0x3b698c97	0.0035636777
115	0x3dbcae2c	0.09212908
116	0xbd28a33e	-0.041171305
117	0x3b17585d	0.002309344
118	0xbc9ef0ec	-0.01940199
119	0xbdfd2761	-0.123610266
120	0x3ded64a2	0.1159146
121	0x3c507cac	0.012725037
122	0x3df47ef0	0.11938274
123	0xbdb8da34	-0.09025994
124	0xbc7aed83	-0.015315416
125	0xbd089b59	-0.033351276
126	0x3d667c39	0.05627081
127	0xbcefbb81	-0.029264214
128	0xbda9d702	-0.082929626
129	0x3dfd8766	0.12379341
130	0x3de58c85	0.112084426
131	0x3e09af1b	0.13445704
132	0x3d797ea1	0.06091178
133	0x3db18e32	0.086697
134	0xbdcae1fe	-0.09906386
135	0x3c894a5d	0.016759092
136	0xbd1f2a2c	-0.038858578
137	0xbc945512	-0.018106971
138	0xbb043354	-0.0020172196
139	0x3cf4fa98	0.029904649
140	0xbdbd99bc	-0.09257838
141	0xbc4268c2	-0.0118657965
142	0xbda2cb40	-0.07948923
143	0xbd11fd5a	-0.035642006
144	0xbd94dc30	-0.0726856
145	0xbd4352d7	-0.047686424
146	0xbdcc86db	-0.09986659
147	0xbdae8315	-0.08521096
148	0xbc97d028	-0.018531874
149	0xbdb8bdc7	-0.09020572
150	0xbe048bd4	-0.12943965
151	0x3dd61f7f	0.10455226
152	0xbdc4bee6	-0.096067235
153	0x3dbf6569	0.09345514
154	0x3c0d9585	0.008641605
155	0xbca55f24	-0.020186968
156	0x3dea0800	0.11427307
157	0xbddb38b1	-0.107041724
158	0x3d8ccf48	0.06875473
159	0x3dcaf262	0.09909512
160	0x3df874a2	0.12131621
161	0xbe01d773	-0.12679844
162	0x3b8f7049	0.004377399
163	0x3c03c3be	0.008042274
164	0xbdbc8ba7	-0.09206324
165	0x3dbababe	0.091176495
166	0xbcbced75	-0.023062447
167	0x3dc3ec83	0.095665954
168	0xbd9a30c1	-0.0752883
169	0xbd82062b	-0.06348833
170	0x3d4ea6be	0.050451986
171	0x3c9d4bc9	0.019201176
172	0x3da96008	0.0827027
173	0x3d7bd745	0.061484594
174	0x3de792a3	0.113072656
175	0xbdd4af49	-0.103849955
176	0x3d03a3fb	0.032138806
177	0x3ddcca9e	0.10780834
178	0xbd78e7b2	-0.060767837
179	0xbd964a29	-0.07338364
180	0x3e157628	0.14595854
181	0xbdf240da	-0.11828776
182	0xbdb717eb	-0.08940109
183	0xbdedcd97	-0.11611479
184	0x3d13c15c	0.036073074
185	0x3d277a89	0.040888343
186	0xbdfd603d	-0.123718716
187	0x3db22265	0.086979665
188	0x3d2fd4a5	0.042927403
189	0x3d4df8f3	0.050286245
190	0xbde705d8	-0.112804115
191	0xbdfe7fc1	-0.12426711
192	0xbdd017e9	-0.101608105
193	0xbd6af1b6	-0.05735942
194	0xbdd7f4fa	-0.105447724
195	0x3d923a8f	0.071400754
196	0xbc6b5210	-0.014362827
197	0xbd5a90c2	-0.053360708
198	0x3dfba0a8	0.12286502
199	0x3cb04e81	0.021521809

lstm.weight_ih_l0_reverse f4 [200, 1]
0	0x3cd13b47	0.025540961
1	0xbdb8a39c	-0.09015581
2	0xbd5c5511	-0.053792063
3	0xbde2bb8e	-0.110709295
4	0xbdbac27f	-0.091191284
5	0x3e16bd42	0.14720634
6	0xbdbcc41d	-0.09217093
7	0x3dac63be	0.08417462
8	0x3dbde857	0.09272831
9	0x3d8b9ed0	0.068174005
10	0x3de3ae46	0.111172244
11	0x3dfb22da	0.12262507
12	0x3da1e0fe	0.07904242
13	0xbc7cab5a	-0.015421713
14	0xbd1348bf	-0.035958048
15	0xbe12be63	-0.1433044
16	0x3db36c95	0.08760945
17	0xbc8542f3	-0.016267275
18	0xbd1aa417	-0.037754145
19	0xbd8c481f	-0.068496935
20	0x3da41638	0.080120504
21	0x3c4ef1df	0.012630909
22	0x3da7d1da	0.08194323
23	0x3db38e81	0.08767415
24	0x3abcad71	0.0014394951
25	0xbc945d94	-0.018111028
26	0x3d76c0d8	0.060242504
27	0xbd9f0d75	-0.077662386
28	0x3dd507b9	0.104018636
29	0x3e11d31f	0.14240693
30	0x3c962b9e	0.018331345
31	0xbc776cb3	-0.0151015995
32	0x3c214387	0.00984276
33	0x3ddd303e	0.10800217
34	0x3ced1ddf	0.028944908
35	0xbdc8ac1a	-0.09798451
36	0xbcea833e	-0.028627034
37	0xbe1d7b2d	-0.15379019
38	0x3c1cfafb	0.009581323
39	0xbe33d7e4	-0.17562824
40	0x3cd7e1da	0.026352812
41	0x3c9212cf	0.017831234
42	0x3df5bee0	0.11999297
43	0xbd1228a3	-0.035683285
44	0xbc0644bd	-0.008195099
45	0xbc75724f	-0.014980867
46	0xbd818a78	-0.06325239
47	0xbd68e0fc	-0.056855187
48	0xbd7e076e	-0.062018804
49	0xbd8ca959	-0.06868238
50	0x3cb1e9a4	0.021717854
51	0x3d36ac99	0.044598196
52	0x3c8e417c	0.01736521
53	0x3df66724	0.12031391
54	0xbcc12a00	-0.023579597
55	0x3d5a04ce	0.05322724
56	0xbdec8edf	-0.11550688
57	0x3dccebad	0.10005889
58	0x3dfaf782	0.122542396
59	0x3d132ea5	0.035933156
60	0xbda1a9aa	-0.07893689
61	0xbb78dec0	-0.0037974566
62	0xbdeab984	-0.114611655
63	0xbe0b461d	-0.13600965
64	0x3dddc63b	0.10828825
65	0x3d736ce4	0.059430018
66	0x3df6ecf6	0.120569155
67	0x3de2eb08	0.11079985
68	0xbd727f63	-0.059203517
69	0x3cfd0a87	0.030888809
70	0xbd5bec5b	-0.053692203
71	0xbdc6c138	-0.09704822
72	0xbd100fe8	-0.03517142
73	0xbdb256a3	-0.08707931
74	0x3de8c012	0.113647595
75	0xbdf36877	-0.118851595
76	0x3e01f098	0.12689435
77	0xbc837bf8	-0.016050324
78	0x3d12a409	0.035800967
79	0x3e4a4684	0.19753462
80	0xbd86393d	-0.06553886
81	0xbd49bab0	-0.049250305
82	0x3d0f1e58	0.034941047
83	0xbd350105	-0.044190425
84	0x3c850b95	0.016240874
85	0x3dbe5ddb	0.09295245
86	0x3c08f161	0.0083583305
87	0x3db88ae8	0.09010869
88	0xbd4247f0	-0.047431886
89	0x3cc5e02a	0.024154741
90	0x3c1f8b1e	0.009737758
91	0xbddb33f9	-0.10703272
92	0xbb8b7536	-0.004255916
93	0x3d850e89	0.06496913
94	0xbdb3843a	-0.087654546
95	0x3ddeaafc	0.108724564
96	0xbd95cd75	-0.073145784
97	0x3d9f6e3e	0.07784699
98	0x3c55927b	0.013035412
99	0xbdbd84e6	-0.09253864
100	0x3f2cfb87	0.675713
101	0x3f0d1e7d	0.55124646
102	0xbecfe35d	-0.40603152
103	0xbec12524	-0.3772365
104	0xbf04a066	-0.5180725
105	0x3f6b8e69	0.92014176
106	0xbe1a8366	-0.15089187
107	0x3f921ab0	1.1414394
108	0x3f8c146a	1.094373
109	0x3f9508db	1.1643327
110	0xbf426498	-0.75934744
111	0xbda08894	-0.0783855
112	0xbf224e8a	-0.6340109
113	0x3e3a8873	0.18216114
114	0xbe968473	-0.29397926
115	0x3eb33c11	0.35006765
116	0xbe5ee56e	-0.21767208
117	0xbed96d54	-0.42466223
118	0xc0088e2e	-2.133678
119	0xbf31de70	-0.6948004
120	0xbf673d48	-0.9032788
121	0x3f889b93	1.0672477
122	0x3f862c03	1.0482181
123	0xbf93c3b5	-1.15441
124	0xbff63e3c	-1.9237742
125	0x3f5222c8	0.8208432
126	0x3e2c107d	0.16803165
127	0xbeee4c23	-0.46542463
128	0xbf51f6fc	-0.82017493
129	0x3fd79d93	1.6844963
130	0x3dba993c	0.091112584
131	0x3edd168a	0.43181258
132	0xbf0330f1	-0.51246554
133	0xbf9521b3	-1.1650909
134	0xbe5e5082	-0.21710399
135	0xbfe481c4	-1.7852101
136	0xbd418a3b	-0.047250967
137	0x3f957b65	1.1678282
138	0xbec9dfc1	-0.39428523
139	0x3fe7c794	1.8107781
140	0xbed68ca8	-0.41904187
141	0x3ef5f849	0.4804099
142	0x3fc5dcfc	1.5458064
143	0x3f8e201d	1.110355
144	0xbcb2d3ea	-0.021829564
145	0xbea3b406	-0.31973284
146	0x3fdaf613	1.7106346
147	0xbf1ad8aa	-0.60486853
148	0xbe939ed1	-0.28832105
149	0xbea6b3be	-0.32559007
150	0xbd0a7c81	-0.033810142
151	0xbc837342	-0.01604617
152	0xbd334c76	-0.04377409
153	0xbd97bbfe	-0.074089035
154	0xbb9bb3a7	-0.004751641
155	0x3d8d6fb0	0.06906068
156	0xbe0d30b1	-0.13788106
157	0x3d762103	0.060090076
158	0x3caaec42	0.02086461
159	0xbde2c90c	-0.11073503
160	0x3dd9791b	0.10618802
161	0x3dbf8ba3	0.093528055
162	0x3d4c642e	0.049900226
163	0xbd7ed7c0	-0.062217474
164	0x3d0d00ef	0.03442472
165	0x3d6dc30e	0.058047347
166	0xbc213c21	-0.009840996
167	0xbd2edd8d	-0.042691756
168	0xbcf89b9f	-0.030347643
169	0xbe204b15	-0.15653642
170	0x3dd654da	0.10465403
171	0x3cd83fa1	0.026397528
172	0xbda1cf10	-0.07900822
173	0x3bebfad9	0.007201534
174	0xbdc3b14d	-0.09555302
175	0xbce6e3a6	-0.028184723
176	0xbdc33a56	-0.09532611
177	0x3d376460	0.04477346
178	0x3da0b0c1	0.07846213
179	0x3c282161	0.010261864
180	0x3d9b927f	0.07596301
181	0x3dcf2dcd	0.10116158
182	0xbe1a5358	-0.15070856
183	0xbdc7bc1e	-0.097526774
184	0x3c164cfc	0.009173628
185	0xbdae8de4	-0.08523157
186	0x3dc38a63	0.095478795
187	0x3df31d5b	0.118708335
188	0xbd83242c	-0.064033836
189	0xbc8c4167	-0.01712103
190	0x3b844f98	0.0040378086
191	0x3df9717b	0.12179848
192	0xbdf1f869	-0.118149586
193	0x3d72474e	0.059150033
194	0xbdca97f7	-0.09892266
195	0xbe08e2d0	-0.13367772
196	0x3dfae245	0.12250189
197	0x3da05012	0.07827772
198	0xbe1239b5	-0.14279826
199	0x3d9a7c2d	0.07543216

lstm.weight_hh_l0_reverse f4 [200, 50]
0	0xbdd73fed	-0.1051024
1	0x3dec9cf0	0.11553371
2	0x3c8a8e94	0.01691369
3	0xbd503344	-0.05083014
4	0x3c91e065	0.017807195
5	0xbcc05d49	-0.023481982
6	0x3b34ca50	0.0027586408
7	0xbdb56c83	-0.088585876
8	0x3d9639a3	0.07335212
9	0xbdbd6d24	-0.092493325
10	0x3b42d249	0.002972739
11	0xbdd64774	-0.10462847
12	0xbda0ece4	-0.07857683
13	0x3c795530	0.015218064
14	0x3c29282d	0.01032452
15	0xbe04e2b2	-0.12977102
16	0x3d2f39bf	0.04277968
17	0x3d3db23f	0.046312567
18	0xbda1a7da	-0.07893343
19	0x3c77fb83	0.015135649
20	0xbd3fec9b	-0.046856504
21	0xbde87036	-0.113495275
22	0xbc9fe148	-0.019516602
23	0x3da6d279	0.08145613
24	0xbbb26f2f	-0.005445383
25	0xbdcf6e54	-0.10128465
26	0x3de4cb7b	0.11171623
27	0xbcaf42e0	-0.021394193
28	0xbe0a18f4	-0.13486081
29	0x3d6e3dc2	0.058164366
30	0xbde574d3	-0.11203923
31	0x3dbb6079	0.0914926
32	0x3cc50717	0.024051232
33	0x3d2e453a	0.04254649
34	0xbdee8ece	-0.116483316
35	0x3ce0e222	0.027451579
36	0xbc7c58ec	-0.01540206
37	0xbc8996af	-0.016795484
38	0x3d154457	0.036442127
39	0xbdf5ad6f	-0.119959705
40	0xbdc607ee	-0.09669481
41	0xbdf9bc64	-0.12194136
42	0xbd6b3e53	-0.057432484
43	0x3d9487a3	0.07252433
44	0x3dab582a	0.08366425
45	0x3d16296d	0.0366606
46	0xbd41d680	-0.047323704
47	0x3c0cdbf6	0.008597365
48	0x3d677243	0.056505453
49	0xbd842f31	-0.064543135
50	0xbe0d0cbd	-0.1377439
51	0xbd025277	-0.031816926
52	0xbd7c803a	-0.061645724
53	0x3db0c022	0.086303964
54	0x3d536709	0.051611934
55	0x3cc3aca8	0.02388604
56	0x3d8372d2	0.064183846
57	0xbdef66d5	-0.116895355
58	0xbd951193	-0.07278743
59	0xbddee6cb	-0.10883864
60	0xbd050510	-0.03247553
61	0xbdd36a48	-0.10323006
62	0xbc09a6a6	-0.0084015485
63	0xbd878a10	-0.0661813
64	0x3d31d83f	0.04341912
65	0xbdfa94f3	-0.12235441
66	0xbd8ddc79	-0.069268174
67	0x3dd4fb5a	0.10399504
68	0x3db7df01	0.089780815
69	0x3c738e91	0.014865533
70	0xbd2e1a45	-0.04250552
71	0xbdf6c7a8	-0.120498
72	0x3dd266d1	0.10273517
73	0xbb4274d7	-0.0029671693
74	0xbd082e08	-0.033247024
75	0xbc878265	-0.01654167
76	0xbd0a577c	-0.033774838
77	0x3d9f15ca	0.07767828
78	0xbdcfe0e1	-0.10150314
79	0xbb3ebb33	-0.0029103279
80	0x3dc0b5c8	0.09409672
81	0xbcfcc6b4	-0.030856468
82	0x3d8efb7d	0.06981561
83	0x3d0ff638	0.035146922
84	0xbde6dced	-0.11272607
85	0x3c49a65d	0.0123077305
86	0xbc499ca9	-0.012305417
87	0xbd9d27c1	-0.07673598
88	0xbd8cc64c	-0.068737596
89	0x3dfd2b31	0.12361754
90	0x3db2f080	0.08737278
91	0x3e0ff6ef	0.14059041
92	0x3dfd2bae	0.12361847
93	0x3d3b58ed	0.045739103
94	0xbd1c6bf4	-0.03818889
95	0x3d8a654f	0.06757604
96	0xbd8b10fd	-0.0679035
97	0x3df81e54	0.1211516
98	0x3e01a5ef	0.12660955
99	0x3deba8c3	0.11506798
100	0x3dc3c464	0.09558943
101	0xbd56ac45	-0.052410383
102	0xbd542dfe	-0.051801674
103	0xbd4148f0	-0.0471887
104	0xbe03e89c	-0.12881702
105	0x3e06b897	0.13156353
106	0xbd9c655b	-0.076365195
107	0xbbdd9c6c	-0.0067630317
108	0xbd2c5cd8	-0.04208073
109	0x3d00f048	0.03147915
110	0xbdea30aa	-0.11435063
111	0x3bd5c25f	0.006523415
112	0x3df64eab	0.120267235
113	0xbd4b9635	-0.049703795
114	0x3ce36d53	0.02776209
115	0x3d750b80	0.05982542
116	0x3de20ee2	0.11037995
117	0xbe0bda5e	-0.13657519
118	0xbd5965e6	-0.053075694
119	0xbdcee671	-0.10102547
120	0xbde416b8	-0.11137146
121	0xbdb27fb1	-0.087157615
122	0x3d30079d	0.04297601
123	0x3dee4e53	0.11636033
124	0x3c8048e3	0.015659755
125	0x3c4045ef	0.0117354235
126	0xbc90c031	-0.017669769
127	0xbe0c5089	-0.13702597
128	0x3e15e24a	0.14637104
129	0x3d49d79f	0.049277898
130	0xbdf9dcc1	-0.122003086
131	0x3d01733f	0.031604048
132	0x3dd0e404	0.101997405
133	0x3daede36	0.08538477
134	0x3df9a347	0.12189346
135	0x3e06b715	0.13155778
136	0x3dee59bc	0.11638209
137	0xbd12fb94	-0.035884455
138	0x3d1ed1ea	0.03877441
139	0x3d2b9f05	0.0418997
140	0xbdfa2389	-0.12213809
141	0x3d2aea18	0.041727155
142	0xbdad1de7	-0.08452969
143	0x3e04c4e8	0.12965739
144	0x3dbd47c7	0.09242206
145	0x3e02e566	0.12782821
146	0x3de9e748	0.114210665
147	0x3e00f4c4	0.1259337
148	0xbe0e4201	-0.13892366
149	0xbdf1e887	-0.11811929
150	0xbdf0b4c9	-0.11753232
151	0x3def7c73	0.11693659
152	0xbd907dcb	-0.07055243
153	0x3dc9822f	0.09839284
154	0x3d506a8d	0.050882865
155	0x3e11cf16	0.14239153
156	0xbd94ca2d	-0.072651245
157	0x3cbefb91	0.023313316
158	0xbdf03f8f	-0.11730873
159	0xbde8f9ca	-0.113757685
160	0xbe002473	-0.12513904
161	0x3dac0a0f	0.08400356
162	0xbd1f6a89	-0.03891996
163	0x3c339399	0.010960483
164	0x3deb90e6	0.115022466
165	0x3d9a2691	0.07526887
166	0x3d265fce	0.04061871
167	0xbd9aa22f	-0.07550465
168	0x3db4c6a2	0.08826949
169	0x3e0839c0	0.1330328
170	0xbe1692f7	-0.147045
171	0xbd17f63c	-0.03710006
172	0xbdde63b6	-0.10858862
173	0xbcd2f182	-0.025749926
174	0x3d06ad90	0.032880366
175	0xbe059c5a	-0.13047925
176	0xbdcf9191	-0.101351865
177	0x3d54c7a7	0.051948216
178	0x3df124fd	0.11774633
179	0xbd80d9b7	-0.06291526
180	0x3d987441	0.07444049
181	0xbde2ca65	-0.1107376
182	0xbd5ae499	-0.053440664
183	0x3dd1d63e	0.102459416
184	0xbcc301cd	-0.02380457
185	0x3d877393	0.06613841
186	0xbda9cb93	-0.08290782
187	0x3d2898d2	0.041161366
188	0xbcf71804	-0.030162819
189	0xbbb6fbaf	-0.0055842022
190	0x3d44f7cf	0.04808789
191	0x3d059b66	0.032618903
192	0x3dd0cc11	0.101951726
193	0xbc427dae	-0.011870785
194	0xbd3fb99d	-0.046807874
195	0x3dd6cabf	0.104878895
196	0xbb8721db	-0.004123909
197	0xbdf14dcd	-0.117824174
198	0xbdc263cc	-0.09491691
199	0x3db30f05	0.08743099
200	0x3d83dfa2	0.06439139
201	0xbd907fce	-0.07055627
202	0x3dc2674a	0.09492357
203	0x3d7cde5e	0.061735503
204	0x3d891907	0.06694227
205	0x3c40f96d	0.011778218
206	0x3d90f02a	0.07077058
207	0xbcb64265	-0.022248456
208	0xbdf23ed2	-0.11828388
209	0xbceacde4	-0.02866263
210	0x3cca7708	0.024714962
211	0xbd982795	-0.07429425
212	0x3d5d2332	0.053988643
213	0x3e039f12	0.1285365
214	0x3d5f361b	0.05449496
215	0x3db87a42	0.09007694
216	0xbc0b6b9f	-0.008509546
217	0xbb2e7539	-0.0026620163
218	0xbd677f18	-0.05651769
219	0x3dfb7fbd	0.122802235
220	0xbda7165e	-0.08158563
221	0x3d8bf953	0.06834664
222	0x3d814973	0.063128375
223	0x3df3ca55	0.11903826
224	0xbcf1b273	-0.029504037
225	0xbd7f17e0	-0.06227863
226	0x3e0e289e	0.13882682
227	0xbdca881f	-0.09889244
228	0xbc2e852c	-0.010651868
229	0xbd9a1a57	-0.07524555
230	0x3dd671a9	0.10470898
231	0x3dc32de4	0.09530237
232	0xbda59238	-0.0808453
233	0xbc0da346	-0.008644884
234	0x3bdfbaed	0.006827703
235	0xbe0fc775	-0.1404093
236	0x3e03e38d	0.12879772
237	0x3d9be985	0.076129
238	0xbb802a29	-0.003911276
239	0x3e02cca1	0.12773372
240	0x3d9ad70b	0.075605474
241	0x3d93a4b2	0.072091475
242	0x3d4b9afd	0.049708355
243	0xbd1228d6	-0.035683475
244	0xbddabd56	-0.10680644
245	0x3d5691c4	0.052385107
246	0xba2c6964	-0.0006576984
247	0x3da177f4	0.07884207
248	0xbdd08d29	-0.10183174
249	0x3c4d27a9	0.012521663
250	0x3ddac5b5	0.10682241
251	0x3cecf652	0.028926048
252	0xbdc851fd	-0.09781263
253	0x3d1c606d	0.038177896
254	0x3e0aaf60	0.13543463
255	0xbcdcffa2	-0.026977364

lstm.bias_ih_l0_reverse f4 [200]
0	0xbde6ada3	-0.11263587
1	0xbdfce7e2	-0.12348916
2	0xbd900d25	-0.07033757
3	0xbe02eae1	-0.12784912
4	0xbd3f8193	-0.04675443
5	0x3dc637d7	0.09678619
6	0x3e062123	0.13098578
7	0xbc9782b0	-0.018494934
8	0xba508410	-0.0007954249
9	0x3d88be60	0.06676936
10	0x3e815ec8	0.25267625
11	0x3db08746	0.08619551
12	0xbdf058ae	-0.11735664
13	0x3deacdaa	0.114650086
14	0xbb2782e3	-0.0025560192
15	0x3e0a5907	0.13510524
16	0x3bbe3215	0.00580431
17	0x3e28f6d1	0.16500403
18	0x3e84eebc	0.2596339
19	0x3d88e101	0.06683541
20	0xbe4e766d	-0.20162363
21	0x3d8b5381	0.068030365
22	0x3e36018d	0.17774029
23	0x3e216c23	0.15763907
24	0x3e4fadcf	0.20281146
25	0x3dded07a	0.108796075
26	0xba4230e0	-0.00074077956
27	0xbd44c946	-0.04804351
28	0xbce10f79	-0.027473198
29	0x3e987d2f	0.29783008
30	0xbd69c0f5	-0.057068784
31	0xbd472495	-0.04861887
32	0xbe00c4a8	-0.12575018
33	0x3d3cb1ff	0.046068188
34	0xbdb9368b	-0.09043606
35	0x3e74c2fa	0.23902503
36	0x3d9035d5	0.07041518
37	0x3e277b5b	0.1635565
38	0x3d6f9c1b	0.058498483
39	0x3df745e6	0.12073879
40	0x3dce8783	0.100844406
41	0x3e0959fe	0.13413236
42	0x3e0e3cf3	0.13890438
43	0xbd506dba	-0.050885893
44	0xba8f5f1d	-0.001093838
45	0xbc679004	-0.014133457
46	0x3da4e604	0.080516845
47	0x3e190d10	0.14946389
48	0xbd9988e5	-0.07496814
49	0x3d8a84f5	0.06763641
50	0xbdbcaeaf	-0.09213006
51	0x3deaf13b	0.11471792
52	0x3b8a222e	0.0042155003
53	0xbdb16d67	-0.08663445
54	0x3d7544b4	0.059879974
55	0xbd92d8cf	-0.07170259
56	0x3e5bf866	0.21481475
57	0x3e18bd44	0.14915949
58	0x3dcde30b	0.10053071
59	0xbcd859c0	-0.026409984
60	0x3e53093d	0.20608993
61	0xbdd9acdc	-0.106286734
62	0x3ca4fdad	0.020140493
63	0x3df2046c	0.1181725
64	0x3ddb15c0	0.10697508
65	0xbdc983ab	-0.09839567
66	0x3cef7b9e	0.02923375
67	0xbc8263fd	-0.015916819
68	0x3e7774ac	0.241656
69	0xbddf98a0	-0.10917783
70	0x3f30a97c	0.6900861
71	0x3e682f15	0.2267421
72	0xbcdab1e1	-0.026696147
73	0x3ceb60c2	0.028732661
74	0x3e8bfda0	0.27341938
75	0x3df191b8	0.11795372
76	0xbc49a1bb	-0.012306626
77	0x3dbbd59a	0.09171601
78	0x3d21541c	0.039386854
79	0x3e893268	0.2679627
80	0xbdac2c07	-0.08406835
81	0xbc042d84	-0.008067492
82	0x3daec91f	0.085344546
83	0x3c029784	0.007970694
84	0x3e68b320	0.22724581
85	0x3e653ae8	0.22385752
86	0xbdd17e2a	-0.10229142
87	0x3ea28304	0.31740582
88	0xbd9fe4e0	-0.07807326
89	0x3df00c6b	0.117211185
90	0xbdfa8098	-0.122315586
91	0x3d9cf2e5	0.07663516
92	0x3e128aa9	0.14310707
93	0x3e7adfc5	0.24499424
94	0x3d9f3e43	0.07775547
95	0xbdb8f3fa	-0.0903091
96	0x3d8b9f79	0.06817526
97	0x3e923360	0.2855482
98	0xbc8e80ce	-0.017395403
99	0x3df4add9	0.11947221
100	0xbd9dde30	-0.077083945
101	0xbddd136f	-0.10794722
102	0x3d6de66f	0.058081087
103	0xbd580059	-0.052734707
104	0x3df92089	0.12164409
105	0xbd1694ba	-0.03676293
106	0x3c4cfcd6	0.012511453
107	0x3db74ffa	0.08950801
108	0xbcc29c51	-0.023756178
109	0xbe003a08	-0.12522137
110	0xbd6487c3	-0.055793535
111	0x3d733214	0.05937393
112	0xbd2d1e7b	-0.042265397
113	0x3dcac2cb	0.09900435
114	0xbd62a7f9	-0.055335972
115	0xbd43867a	-0.04773567
116	0x3d04e073	0.032440614
117	0xbd8a6338	-0.06757206
118	0xbded0058	-0.11572331
119	0x3ce4e236	0.027939897
120	0xbc2eda1d	-0.010672119
121	0xbdc10669	-0.09425051
122	0x3ce999a8	0.028515652
123	0x3bdd5655	0.0067546763
124	0x3ba73562	0.0051027993
125	0xbd6c4494	-0.05768259
126	0xbc4f6c33	-0.012660074
127	0x3df3dbd7	0.119071655
128	0x3bf1f402	0.0073838243
129	0xba821e83	-0.0009927306
130	0xbc64b937	-0.013960174
131	0xbdd1c106	-0.102418944
132	0x3cb12be1	0.021627368
133	0x3ddff96a	0.10936244
134	0x3d33abf5	0.043865163
135	0xbcd3d1e7	-0.025856925
136	0x3dab39e5	0.08360652
137	0xbdd7721b	-0.10519811
138	0x3d2f17be	0.04274725
139	0x3d653490	0.05595833
140	0x3daabc7c	0.08336732
141	0x3d567d60	0.05236566
142	0x3dd7a559	0.105295844
143	0x3d041097	0.032242384
144	0xbd7835f7	-0.06059834
145	0x3d8289a7	0.06373911
146	0x3d5672a1	0.052355412
147	0xbcd413f5	-0.025888423
148	0xbc7ca628	-0.015420474
149	0xbd06b76e	-0.032889776
150	0xbdbcfb4d	-0.09227619
151	0x3d3fd790	0.046836436
152	0x3d3be791	0.045875136
153	0xbd7a5183	-0.061112892
154	0xbda7ea6b	-0.081990086
155	0x3d093870	0.03350109
156	0x3e116c25	0.1420141
157	0xbd13d40e	-0.036090903
158	0x3e121aa2	0.14267972
159	0xbc69c12b	-0.014267246
160	0x3de42721	0.11140276
161	0x3e0d71a5	0.13812883
162	0xbd9fc8f7	-0.07802003
163	0x3e23c4b8	0.15993011
164	0x3e35b80f	0.17745994
165	0x3d195d52	0.037442513
166	0xbd0f4fbf	-0.03498816
167	0x3db5e667	0.088818364
168	0x3ef28946	0.47370356
169	0xbdc5762d	-0.09641681
170	0x3e9d25fd	0.30693045
171	0x3e52bb3b	0.20579235
172	0xbc9bf9a9	-0.019039946
173	0x3eaf5eeb	0.34252104
174	0x3e84970d	0.25896493
175	0x3c7ac86f	0.015306576
176	0xbda2e72d	-0.079542495
177	0x3e1737cb	0.14767377
178	0xbd8adb04	-0.06780055
179	0x3e49db8b	0.19712655
180	0x3c07d5c5	0.008290713
181	0x3c8cace9	0.017172294
182	0xbdcd8543	-0.10035183
183	0x3e51ff28	0.2050749
184	0x3bb5dfc6	0.0055503575
185	0x3e81a2ce	0.25319523
186	0xbd181b72	-0.03713555
187	0x3dfbe71e	0.122999415
188	0xbdd61fe3	-0.10455301
189	0x3e65b435	0.22432025
190	0x3d82cc37	0.06386607
191	0x3e043e7a	0.12914458
192	0x3cb85bad	0.022504652
193	0x3d959317	0.07303446
194	0xbc2d8354	-0.010590393
195	0xbdc301e3	-0.09521844
196	0x3e18d187	0.14923678
197	0x3e5ef5b9	0.21773423
198	0x3d54a538	0.051915377
199	0xbdc7390f	-0.0972768

lstm.bias_hh_l0_reverse f4 [200]
0	0xbda089a1	-0.07838751
1	0x3e132adf	0.14371823
2	0x3d9a184f	0.07524168
3	0xbd1eb0b0	-0.03874272
4	0x3e2064c5	0.1566344
5	0xbd4d417a	-0.05011127
6	0x3d240cc6	0.040051244
7	0x3db5e0ce	0.08880769
8	0xbd601023	-0.05470289
9	0x3e03bf2b	0.12865894
10	0x3e97dc6d	0.2966036
11	0xbd401552	-0.046895333
12	0x3be8603c	0.00709155
13	0x3cf20b06	0.029546272
14	0x3df7e89b	0.12104913
15	0xbcdda828	-0.027057722
16	0xbdbdfa19	-0.09276218
17	0x3dfa05e7	0.12208157
18	0x3e9b3441	0.30313304
19	0xbd9518dc	-0.07280132
20	0xbd02f81f	-0.031974908
21	0x3de99abf	0.114064686
22	0x3e3f56bb	0.18685429
23	0x3e685196	0.22687373
24	0x3dbfaeaf	0.0935949
25	0x3cddaba2	0.02705938
26	0x3dfdf357	0.12399929
27	0x3d28b557	0.041188564
28	0x3e06e02f	0.13171457
29	0x3e986c9f	0.2977037
30	0xbddc698e	-0.107623205
31	0x3df7eb49	0.12105424
32	0xbda5956e	-0.08085142
33	0x3e1a3593	0.150595
34	0xbd701271	-0.058611337
35	0x3e8bd4da	0.2731083
36	0xbcda7853	-0.026668703
37	0x3ea855d6	0.32877988
38	0x3e2068c0	0.15664959
39	0x3de94a6a	0.113911465
40	0xbdb8b285	-0.09018425
41	0xbcae8091	-0.02130154
42	0x3e0946f8	0.13405979
43	0xbc84f18f	-0.016228465
44	0x3d791c96	0.060818277
45	0xbe06d838	-0.13168418
46	0x3e68c82a	0.22732607
47	0x3d5883cb	0.052860063
48	0xbdad8fe4	-0.084747106
49	0x3d2be98f	0.041970786
50	0x3ddd3752	0.10801567
51	0x3d34c762	0.04413546
52	0xbdab9738	-0.08378452
53	0x3e2a84f3	0.16652279
54	0x3db66ba8	0.089072526
55	0x3e396f81	0.18108942
56	0xbc85fe82	-0.01635671
57	0xba50b60c	-0.00079616974
58	0xbd3e5d10	-0.04647547
59	0x3e3a6301	0.1820183
60	0x3d3265a2	0.043553956
61	0x3e0884c4	0.13331896
62	0x3c9a4c25	0.018835137
63	0x3d964627	0.07337599
64	0x3dbb43e6	0.0914381
65	0xbde12533	-0.10993423
66	0x3e2e567f	0.17025183
67	0xbca702a3	-0.020387
68	0x3e62b5f4	0.22139722
69	0x3e0cf5ac	0.13765591
70	0x3f130cca	0.5744139
71	0x3d2500ea	0.040284075
72	0x3c74669b	0.014917041
73	0x3e6d457d	0.23171039
74	0x3e067df5	0.13133986
75	0x3c1df850	0.009641722
76	0x3deb36a0	0.11485028
77	0xbdf5c322	-0.12000109
78	0x3d4f6d6e	0.05064147
79	0x3e713c3f	0.23558138
80	0xbd0f49aa	-0.03498236
81	0x3e044e65	0.1292053
82	0x3d4bdae1	0.049769286
83	0x3dd01916	0.10161035
84	0x3da56a0e	0.08076869
85	0x3e4a8183	0.19775967
86	0xbcbedee8	-0.02329965
87	0x3e522ed7	0.2052568
88	0xbd5a1b61	-0.053248767
89	0x3decc4cc	0.115609735
90	0x3deec7e1	0.116592176
91	0x3e242b48	0.16032135
92	0x3e6198c9	0.22030939
93	0x3e40cbcc	0.18827742
94	0x3e1e9489	0.15486349
95	0x3ca8e542	0.020617131
96	0x3c59bb82	0.013289334
97	0x3e160131	0.14648892
98	0x3dbe5d1b	0.09295102
99	0x3d45da7e	0.048304074
100	0x3ba4d6a3	0.0050304695
101	0x3d9a8fdf	0.075469725
102	0xbc75acef	-0.014994844
103	0x3c528b79	0.012850636
104	0xbd7ebfad	-0.062194515
105	0x3ceee434	0.02916155
106	0x3d30fc41	0.043209318
107	0xbdaac31a	-0.08337994
108	0xbd9a012e	-0.07519756
109	0x3dd6ea50	0.1049391
110	0xbe7a8449	-0.24464525
111	0xbde88fcd	-0.11355553
112	0x3db342c6	0.087529704
113	0xbd5abd7b	-0.05340336
114	0xbc1d1da7	-0.009589589
115	0xbc9c4ed2	-0.019080553
116	0x3d73a52f	0.059483703
117	0xbd15cc3e	-0.036571734
118	0x3da1faf7	0.07909196
119	0x3d752a0b	0.05985455
120	0x3e2d7f66	0.1694313
121	0x3d05e158	0.032685608
122	0xbc2af4ec	-0.0104343705
123	0xbe0b5a41	-0.13608648
124	0x3d670f67	0.056411173
125	0x3c7f2c89	0.015574583
126	0xbd09f849	-0.03368405
127	0xbd6b41ee	-0.057435922
128	0xbcfde144	-0.030991204
129	0xbbeeaf94	-0.007284114
130	0x3d28901b	0.041153055
131	0x3dd58420	0.104255915
132	0x3d857ec9	0.06518323
133	0x3d051140	0.032487154
134	0x3d873e80	0.06603718
135	0xbda2fd12	-0.079584256
136	0xbd4fe3a5	-0.050754208
137	0xbe1a190b	-0.15048616
138	0xbd419da2	-0.04726947
139	0xbd8d9d01	-0.06914712
140	0xbd0b1ebf	-0.03396487
141	0x3c2a900e	0.010410322
142	0xbdb53b80	-0.08849239
143	0xbb94a976	-0.004536803
144	0x3de5b4b1	0.11216105
145	0xbd23b3aa	-0.039966263
146	0xbd9f73a9	-0.07785732
147	0xbd8b18ba	-0.067918256
148	0x3db72522	0.089426294
149	0x3d832c25	0.06404904
150	0x3e108dd6	0.14116606
151	0xbd8fb643	-0.070171855
152	0x3d759c54	0.05996354
153	0xbd264d5d	-0.040601123
154	0x3bf8fec8	0.0075987317
155	0x3caca346	0.021073949
156	0xba9dbb61	-0.0012033993
157	0xbce8b45d	-0.028406316
158	0x3d15bea1	0.03655875
159	0xbc9d48e8	-0.019199803
160	0x3e216e41	0.15764715
161	0x3d77deb8	0.060515136
162	0xbd03c4a7	-0.032169964
163	0x3e0fb4d7	0.14033829
164	0x3d7974f6	0.06090256
165	0x3e15a1da	0.14612523
166	0x3db27593	0.08713832
167	0x3e13a7b8	0.14419448
168	0x3ebb4f3d	0.36583892
169	0xbc7d6c32	-0.01546769
170	0x3e2dbd78	0.16966808
171	0x3da5d944	0.08098081
172	0x3e381dc8	0.1798011
173	0x3e84f359	0.2596691
174	0x3e14b834	0.14523393
175	0x38c92601	9.591506e-05
176	0xbcec5bf1	-0.028852435
177	0xbdec431a	-0.11536236
178	0xbd2bb576	-0.0419211
179	0x3e5fe132	0.21863249
180	0x3e0d4b08	0.13798153
181	0x3e1fcaf6	0.15604767
182	0x3d7e5e19	0.062101457
183	0x3e79ac0e	0.2438204
184	0xbdc6b74e	-0.09702931
185	0x3e05d97c	0.13071245
186	0x3d80a9a0	0.062823534
187	0x3e82b2d6	0.25527066
188	0x3ca42a8e	0.020039823
189	0x3e310d53	0.17290239
190	0xbdaa97bf	-0.083297245
191	0x3d9f1d0d	0.07769213
192	0x3e2dd871	0.16977097
193	0xbd1b0ade	-0.03785216
194	0x3a63d9d4	0.0008691822
195	0x3d8e2a4f	0.069416635
196	0x3dcac34e	0.09900533
197	0x3cf0c124	0.029388972
198	0xbd8aa750	-0.067701936
199	0x3d5db991	0.054132048

linear.weight f4 [1, 100]
0	0x3e27973d	0.16366287
1	0x3e05ca85	0.13065536
2	0xbe33265c	-0.17495102
3	0x3d6be7ad	0.05759399
4	0xbc735613	-0.014852065
5	0xbd9e9c14	-0.07744613
6	0xbe18e44b	-0.14930837
7	0xbe062658	-0.13100564
8	0xbdb016e6	-0.085981175
9	0x3e2c6e57	0.16838966
10	0xbe3fcc12	-0.1873019
11	0x3e0b0732	0.13576964
12	0x3cfdc851	0.030979307
13	0x3ea6abc8	0.32552934
14	0x3e7ea5f0	0.24867988
15	0x3c508ebb	0.012729342
16	0xbdef20a8	-0.116761506
17	0x3ceba983	0.028767353
18	0x3d0ae9a1	0.033914212
19	0xbbfb3e5a	-0.007667345
20	0x3aefb61d	0.0018288527
21	0xbdcebb21	-0.10094286
22	0xbd9f54ed	-0.0777987
23	0x3e11d968	0.1424309
24	0xbdbc81b9	-0.0920443
25	0x3aa9079d	0.0012895946
26	0x3c07de39	0.008292728
27	0xbdd0a974	-0.101885706
28	0xbdf166fe	-0.11787222
29	0xbe81a001	-0.25317386
30	0xbe281ec8	-0.16417992
31	0x3c1dc2e9	0.00962899
32	0xbe7cd3de	-0.24690196
33	0xbe2963f8	-0.16542041
34	0x3dc6f0fc	0.09713933
35	0xbe31438b	-0.17310922
36	0x3d8416b5	0.064496435
37	0xbd73e0c7	-0.059540536
38	0x3e193df6	0.14965042
39	0x3da6c169	0.08142359
40	0x3e9fef30	0.31237173
41	0x3e1da0d8	0.15393388
42	0x3e7036c9	0.23458399
43	0x3d18ada5	0.037274975
44	0xbe97f8cd	-0.29682007
45	0xbdb14f51	-0.086577065
46	0x3e0b8567	0.13625108
47	0xbe0b1ef5	-0.13586028
48	0x3d974eb9	0.07388062
49	0xbdf8b2ae	-0.121434554
50	0xbdadd19a	-0.08487244
51	0xbdcc1c5b	-0.09966346
52	0xbe5f87b8	-0.21829116
53	0x3d895f2f	0.06707608
54	0x3e3d3929	0.18478836
55	0xbcc22727	-0.02370031
56	0xbeb0b654	-0.34514105
57	0x3e9db402	0.30801398
58	0x3e832d3b	0.25620446
59	0x3e0f20a1	0.1397729
60	0xbf622ae3	-0.8834669
61	0x3e626953	0.2211049
62	0xbd295860	-0.041344047
63	0x3e9e15b5	0.30875936
64	0xbf0080c8	-0.50196505
65	0x3e7f8c37	0.24955831
66	0xbe40968c	-0.18807429
67	0xbf28f497	-0.65998214
68	0xbf85efd0	-1.046381
69	0xbdb3a529	-0.08771736
70	0xbf7d43da	-0.9893166
71	0x3f304e89	0.68869835
72	0x3f12235e	0.57085216
73	0xbf7a46b2	-0.9776412
74	0xbf543671	-0.8289557
75	0x3e510dc1	0.20415403
76	0x3eb04cf2	0.34433705
77	0xbcffb1b8	-0.031212673
78	0xbe99aca1	-0.30014518
79	0x3f559c71	0.83441836
80	0x3e1f0963	0.15530924
81	0x3e1f51c9	0.15558542
82	0xbd046f75	-0.032332856
83	0x3e842d1e	0.25815672
84	0xbdcb3e6c	-0.099240154
85	0xbf36e238	-0.7143893
86	0xbd76ddba	-0.06027005
87	0x3f88d361	1.0689508
88	0xbe93f43f	-0.28897282
89	0x3edbe432	0.42947537
90	0x3d8511a9	0.06497509
91	0xbd48f17c	-0.049058422
92	0x3e3a7283	0.18207745
93	0x3e76c75a	0.24099484
94	0xbed443bb	-0.41457924
95	0xbdc9acd3	-0.09847417
96	0x3f19fc24	0.6015036
97	0xbf39e521	-0.7261525
98	0xbdb04ffb	-0.08609005
99	0x3ddb8c89	0.10720164
