Model/Bi_LSTM_HiddenSize_30_LearnRate_0_01.pth (torch, 43335 bytes, 9 tensors)

lstm.weight_ih_l0 f4 [120, 1]
0	0xbd4d3f88	-0.050109416
1	0xbdb4222b	-0.087955795
2	0xbde3ece6	-0.11129169
3	0x3d44c39e	0.048038118
4	0x3db83dc8	0.08996159
5	0x3dd2a6b6	0.10285704
6	0xbdce7e42	-0.100826755
7	0xbd9821e2	-0.07428338
8	0xbc04ba00	-0.0081009865
9	0x3e144ac8	0.14481652
10	0xbd2274a6	-0.039662026
11	0xbd28a6d4	-0.041174725
12	0x3d4a7bd9	0.049434517
13	0x3df19a1f	0.117969744
14	0xbc9178ff	-0.01775789
15	0xbe2a7be6	-0.16648826
16	0x3dcc107c	0.09964082
17	0x3db20f4f	0.08694326
18	0x3dbb4d0a	0.091455534
19	0xbc96cd44	-0.018408425
20	0xbc278518	-0.010224603
21	0x3d91f456	0.071266815
22	0x3e0c5ced	0.13707323
23	0x3d75178a	0.0598369
24	0xbe1f9102	-0.1558266
25	0xbd4bad46	-0.049725793
26	0x3d729e4b	0.05923299
27	0x3caefe1c	0.021361403
28	0x3dfc2f84	0.123137504
29	0x3dee91b2	0.11648883
30	0x3dc7d802	0.09757997
31	0x3e345c1c	0.17613262
32	0xbd4c94ae	-0.04994648
33	0xbddcc322	-0.10779406
34	0x3e365761	0.1780677
35	0xbd7760fa	-0.06039522
36	0x3ce8d99b	0.028424075
37	0x3ce856ed	0.028361762
38	0xbc5643f5	-0.013077726
39	0x3db98233	0.09058037
40	0xbe02a812	-0.12759426
41	0x3e30b47e	0.17256352
42	0x3dbc6063	0.09198072
43	0x3d9fe2a8	0.07806903
44	0x3de56aa7	0.11201983
45	0x3d4f81cd	0.050660897
46	0xbc6cb69a	-0.0144478325
47	0xbe15c0c0	-0.1462431
48	0xbe41f644	-0.18941599
49	0xbce39bc8	-0.027784243
50	0xbdc656ab	-0.09684499
51	0xbde7fb39	-0.11327214
52	0x3d931619	0.07181949
53	0x3d8b1c1a	0.06792469
54	0xbda17ad4	-0.07884756
55	0x3a64206b	0.00087023404
56	0x3e1609d7	0.14652191
57	0xbe3cc486	-0.18434343
58	0x3e4586a0	0.19289637
59	0x3bb82d1c	0.005620612
60	0xbe7dfc1e	-0.24803206
61	0x3f34b61d	0.7059038
62	0x3fbf1471	1.4928113
63	0xbd96189a	-0.07328911
64	0x3f2515f1	0.64486605
65	0x3e28d1cb	0.1648628
66	0xbf741399	-0.95342404
67	0x3f97feb5	1.1874605
68	0x3f8daa97	1.1067685
69	0xbf1673fd	-0.58770734
70	0xbf7de9a3	-0.99184626
71	0x3f8e3fa1	1.1113168
72	0x3ef1b517	0.47208473
73	0x3f5029df	0.8131389
74	0xbeb3588e	-0.350285
75	0x3f8b2626	1.0871017
76	0xbf2c88fc	-0.6739652
77	0x3ed666f9	0.41875437
78	0xbf5220cc	-0.82081294
79	0x3eae9a9e	0.3410234
80	0x3c570431	0.013123558
81	0x3de29e3f	0.11065339
82	0xbeb23b24	-0.34810746
83	0x401a2070	2.4082298
84	0x3eaab7d4	0.33343375
85	0xbf526dc5	-0.82198745
86	0x3f16d66d	0.5892094
87	0x3f66e1cb	0.9018828
88	0xbf27c724	-0.6553824
89	0xbfa884e7	-1.3165559
90	0xbde8467c	-0.11341569
91	0xbe08953e	-0.13338181
92	0x3e0fa38c	0.14027232
93	0x3e03eb54	0.1288274
94	0xbd9041c3	-0.07043793
95	0xbd778ba5	-0.06043591
96	0x3e2c84d4	0.16847545
97	0x3d7cbfe5	0.061706442
98	0xbd709532	-0.058736034
99	0x3dbc7d63	0.09203603
100	0xbdd4b9c2	-0.10386993
101	0x3d713796	0.0588909
102	0xbe24a517	-0.16078602
103	0xbcdaec7d	-0.026724095
104	0x3dacd286	0.08438592
105	0xbbbe4ac7	-0.005807254
106	0x3d7a1430	0.06105441
107	0xbd6a3fa3	-0.057189595
108	0x3d71ec43	0.059063207
109	0x3e0b064d	0.13576622
110	0x3d0423e7	0.0322608
111	0xbda769a1	-0.08174444
112	0xbd74b453	-0.059742283
113	0xbe4b0361	-0.19825508
114	0xbcf10fef	-0.029426543
115	0x3d3b885d	0.045784343
116	0x3d79e7c9	0.061012063
117	0x3dfb1d4f	0.122614495
118	0x3d93d693	0.07218661
119	0x3e3666fc	0.17812723

lstm.weight_hh_l0 f4 [120, 30]
0	0x3e1c4002	0.15258792
1	0xbddbb6ba	-0.10728212
2	0x3d07ecf8	0.033184975
3	0x3d928266	0.07153778
4	0x3dfd44dc	0.123666495
5	0x3d930bbc	0.071799725
6	0x3defcea4	0.117093354
7	0x3dc7e8fe	0.097612366
8	0xbe13382e	-0.143769
9	0x3e0594d6	0.13045058
10	0xbc0b99bd	-0.008520541
11	0x3debd257	0.115147285
12	0xbdadf84b	-0.08494624
13	0xbd02b1dd	-0.031907905
14	0xbbe9fd26	-0.0071407733
15	0xbe3832cf	-0.17988132
16	0x3df3398e	0.11876212
17	0x3da38023	0.079834245
18	0x3da8a81c	0.08235189
19	0x3e11f561	0.14253761
20	0xbc80043c	-0.01562702
21	0xbe1504c2	-0.14552596
22	0x3d8eb5c9	0.069682665
23	0x3da6ebfe	0.08150481
24	0x3ce80ace	0.028325465
25	0x3d553f48	0.052062303
26	0x3e3891f8	0.18024433
27	0x3db45dac	0.08806929
28	0x3d775afd	0.060389508
29	0x3dea4f58	0.11440915
30	0x3e1ba3c2	0.15199187
31	0x3e070eab	0.13189189
32	0x3d71cc0a	0.059032477
33	0xbc37730f	-0.011196866
34	0x3d60c74f	0.054877575
35	0xbc5e2146	-0.013557738
36	0xbd83ce2b	-0.06435808
37	0x3e015784	0.12631041
38	0x3db66a20	0.089069605
39	0xbe1dc8b3	-0.15408592
40	0xbdc0b77d	-0.094099976
41	0xbe2a9c04	-0.16661078
42	0xbe33bc58	-0.17552316
43	0xbdd9f51d	-0.10642455
44	0x3ddc7d7c	0.10766122
45	0xbd47f78e	-0.04882007
46	0xbdddf9f2	-0.10838689
47	0xbd5024bd	-0.050816286
48	0xbcdf7a7c	-0.027280085
49	0x3e27c673	0.16384296
50	0x3e2f6f82	0.1713238
51	0x3d401a0e	0.046899848
52	0xbdbe8863	-0.093033575
53	0x3e10fbeb	0.14158599
54	0x3e26ae05	0.1627732
55	0xbe363049	-0.17791857
56	0xbde907e1	-0.11378456
57	0x3e22e75a	0.15908566
58	0x3b9e1fea	0.004825582
59	0x3dba5092	0.09097399
60	0xbd37cde3	-0.044874083
61	0x3dd8ee5f	0.10592341
62	0xbe1b4c07	-0.15165721
63	0xbe2f1420	-0.17097521
64	0xbe203ad0	-0.15647435
65	0xbdb6d2a6	-0.08926897
66	0x3be09fcf	0.006854988
67	0x3dfb732c	0.12277827
68	0xbe3342d2	-0.17505959
69	0x3e2fdff6	0.17175278
70	0xbc2e2be7	-0.010630584
71	0x3e2e8037	0.17041098
72	0xbd7330bf	-0.05937266
73	0xbd84b7e4	-0.06480387
74	0xbdeeb9f0	-0.116565585
75	0x3dbe5175	0.092928804
76	0x3ca2fc84	0.0198958
77	0x3de15528	0.110025704
78	0x3d917438	0.07102245
79	0x3dd78ced	0.10524926
80	0xbc9ee7ed	-0.0193977
81	0xbd83d299	-0.06436653
82	0x3d48d2ab	0.049029034
83	0xbc366600	-0.011132717
84	0xbda26a09	-0.07930381
85	0x3b167a83	0.0022961206
86	0x3ca668bc	0.020313613
87	0x3da64943	0.08119442
88	0xbcaf5cfe	-0.021406647
89	0x3d1c1aac	0.038111374
90	0xbe2560ce	-0.1615021
91	0x3e0df565	0.13863142
92	0xbe0c9fc3	-0.1373282
93	0xbe1095a8	-0.1411959
94	0x3dac98cd	0.08427582
95	0x3e06db7a	0.13169661
96	0xbe2bdd95	-0.16783746
97	0x3c108799	0.0088213915
98	0xbdf93bf3	-0.121696375
99	0xbe23fae0	-0.1601367
100	0xbdd7e9d0	-0.10542643
101	0x3d81c9aa	0.063372925
102	0x3e0eca13	0.13944273
103	0x3d996ae6	0.074910924
104	0x3e34628b	0.17615716
105	0xbe19c03e	-0.15014741
106	0xbe28bcd6	-0.16478285
107	0xbe1351ee	-0.14386722
108	0xbe31c77c	-0.17361253
109	0x3d6c06d8	0.057623714
110	0xbdefde04	-0.11712268
111	0xbe113bba	-0.1418294
112	0xbe120ad8	-0.14261949
113	0x3d105ea3	0.035246503
114	0x3e286d2a	0.16447893
115	0xbd809bf9	-0.062797494
116	0xbd5ff434	-0.05467625
117	0x3b1c72e0	0.0023872182
118	0xbc81fcba	-0.01586758
119	0xbd18a7be	-0.037269346
120	0x3dfd00c0	0.12353659
121	0x3e0cab6b	0.13737266
122	0x3df11917	0.11772364
123	0x3c8f461f	0.017489491
124	0xbe38bc57	-0.18040596
125	0x3d184c9a	0.037182428
126	0x3d9e2682	0.077221885
127	0xbd434c20	-0.04768002
128	0x3d34420d	0.044008303
129	0x3d96bc5f	0.07360148
130	0xbdfd6bf1	-0.12374104
131	0xbdd30e44	-0.10305455
132	0xbe375439	-0.17903222
133	0x3dc7fb5e	0.09764741
134	0xbe3513bb	-0.17683308
135	0x3c400fe8	0.011722542
136	0x3e1d2b5c	0.15348572
137	0x3bad26cf	0.0052841674
138	0x3daff667	0.085919194
139	0x3cbcbfef	0.02304074
140	0xbe0adc70	-0.13560653
141	0xbc6bacb4	-0.014384437
142	0xbcc0a165	-0.023514459
143	0xbb76cf0a	-0.0037660026
144	0x3de07c4a	0.10961206
145	0x3d11e615	0.035619814
146	0x3dbf79b1	0.09349383
147	0x3d2629a6	0.040567063
148	0xbe1288ce	-0.1431
149	0xbdfa8ed5	-0.12234274
150	0xbd4bf85b	-0.049797397
151	0xbdccdb68	-0.10002786
152	0x3e13fe80	0.14452553
153	0x3d645341	0.05574346
154	0xbe194b19	-0.14970054
155	0x3e0a4f89	0.13506903
156	0xbe352c6e	-0.1769273
157	0x3daea083	0.08526709
158	0xbd0254e2	-0.03181923
159	0xbe072864	-0.13199002
160	0x3e2dcedc	0.16973442
161	0xbd1b2610	-0.037878096
162	0x3dfd24a7	0.123605065
163	0xbe0a4d52	-0.13506058
164	0xbe081ec2	-0.13292983
165	0xbe30fa25	-0.17282923
166	0xbca0ae61	-0.0196144
167	0x3e2a1bcb	0.16612165
168	0x3dcc450e	0.09974109
169	0xbe28e7f9	-0.1649474
170	0x3dc8f06a	0.0981148
171	0x3decd352	0.11563744
172	0x3b57b845	0.003291623
173	0xbdb4652f	-0.08808362
174	0xbe2b7395	-0.1674331
175	0x3dd20b97	0.10256117
176	0x3d67eb78	0.056621045
177	0x3e38c52b	0.18043964
178	0xbd9cfa5d	-0.076649405
179	0x3d18284c	0.037147805
180	0xbdd4e556	-0.10395305
181	0xbe341bdc	-0.17588753
182	0x3d3cd451	0.04610092
183	0x3e34c214	0.1765216
184	0x3dfd747e	0.12375735
185	0xbd2753f6	-0.040851556
186	0xbd7bbbad	-0.06145828
187	0x3d84786a	0.0646828
188	0xbe0cc5f6	-0.13747391
189	0xbe29a09a	-0.16565171
190	0xbb321cfa	-0.0027177916
191	0x3e2871bd	0.16449638
192	0xbe02347d	-0.12715335
193	0x3cf8e72f	0.030383674
194	0xbdafe843	-0.08589222
195	0x3de85f9e	0.113463625
196	0xbda3618d	-0.07977591
197	0xbdfeac14	-0.12435165
198	0x3dfeda9e	0.12444042
199	0xbe39e8e7	-0.18155251
200	0xbe397c48	-0.18113816
201	0x3dfe6044	0.12420705
202	0xbda19e81	-0.0789156
203	0x3e372a1c	0.17887157
204	0xbe2ff9c5	-0.17185123
205	0x3d13ea34	0.036112025
206	0xbe007c24	-0.12547356
207	0x3dae18ee	0.08500849
208	0x3d11f463	0.035633456
209	0xbddc80d6	-0.10766761
210	0xbd26e2aa	-0.040743507
211	0xbdc8fd6d	-0.09813962
212	0xbe1b1fd7	-0.15148865
213	0xbde43a21	-0.111439
214	0x3e259eaf	0.16173814
215	0x3dce770f	0.100813024
216	0xbcf6f46d	-0.030145848
217	0xbdd78e46	-0.105251834
218	0x3a93e841	0.0011284427
219	0xbe1372e2	-0.14399293
220	0xbe3758d8	-0.17904985
221	0xbd5bf234	-0.05369778
222	0x3e161bfb	0.14659111
223	0xbbcb58e3	-0.0062056645
224	0xbd9109fc	-0.070819825
225	0x3dfae989	0.122515745
226	0xbd9bdbd6	-0.0761029
227	0xbd02f1cb	-0.031968873
228	0xbdc077f7	-0.093978815
229	0x3d2d650d	0.042332698
230	0xbd89dd1c	-0.067316264
231	0xbe38eee3	-0.18059878
232	0x3e34e112	0.17663983
233	0xbe2ed6c5	-0.17074116
234	0xbe0193f7	-0.126541
235	0x3d91a5bf	0.07111692
236	0x3df07aa8	0.11742145
237	0x3ca31175	0.019905785
238	0x3c97c5c9	0.018526928
239	0xbe37a72f	-0.17934869
240	0xbe0af0be	-0.13568398
241	0x3d32d2c4	0.043658033
242	0xbe1ecdd5	-0.15508206
243	0x3dbb3cf5	0.09142486
244	0xbda282d4	-0.0793511
245	0x3e075032	0.13214186
246	0x3d56468a	0.052313365
247	0xbdf6a8a0	-0.120438814
248	0xbe24df35	-0.16100772
249	0xbe36c802	-0.17849734
250	0xbd485616	-0.048910223
251	0x3e3426f4	0.17592984
252	0x3e21d58d	0.1580412
253	0xbe34223c	-0.17591184
254	0xbe09fd3d	-0.13475509
255	0x3c4d0c77	0.012515179

lstm.bias_ih_l0 f4 [120]
0	0x3c9f0cf8	0.019415364
1	0x3e5e2af1	0.21696068
2	0xbb2ab032	-0.0026044962
3	0xbd160c1b	-0.03663264
4	0x3dd15add	0.10222409
5	0x3d66d7cc	0.056358144
6	0xbc66c176	-0.014084211
7	0x3e50880b	0.20364396
8	0x3e295c8c	0.1653921
9	0x3cfe9b0b	0.03107979
10	0x3e6eebd5	0.2333215
11	0xbe1ea910	-0.1549418
12	0x3dd1a30d	0.102361776
13	0x3dfc99d0	0.12334025
14	0xbe244659	-0.1604246
15	0xbdfb865c	-0.122814864
16	0xbd2cd497	-0.04219493
17	0xbdf94f14	-0.12173286
18	0xbd5a9d06	-0.053372405
19	0xbda4c225	-0.08044843
20	0x3d89bb54	0.06725183
21	0x3d99d3cf	0.075111024
22	0x3e126f98	0.14300382
23	0x3ef02f1a	0.46910936
24	0x3db42003	0.08795168
25	0xbdcb3d8f	-0.09923851
26	0xbdad76f6	-0.084699556
27	0x3e3b1b54	0.18272144
28	0x3e8313ce	0.25601047
29	0x3e3926b9	0.18081178
30	0x3e3b4efa	0.18291846
31	0x3ce3c0b2	0.027801845
32	0x3e905d28	0.28196073
33	0x3c9b99e9	0.018994289
34	0x3e541eb2	0.20714834
35	0x3e05317d	0.1300716
36	0x3e64dbb4	0.22349435
37	0x3deefe21	0.11669565
38	0xbe143afc	-0.14475626
39	0x3e309f7e	0.17248341
40	0x3cbab7da	0.022792745
41	0x3e87da7c	0.26533878
42	0xbdb4cdd4	-0.08828321
43	0x3e406f2a	0.18792406
44	0xbd037d82	-0.032102115
45	0x3e698ded	0.22808047
46	0x3df92322	0.12164904
47	0x3ca12103	0.019669062
48	0x3e3cc699	0.18435134
49	0x3dfc7ac5	0.12328104
50	0xbda94157	-0.08264416
51	0x3e066839	0.13125695
52	0x3e18662e	0.14882728
53	0x3dd549f6	0.104144976
54	0xbe2fee87	-0.17180835
55	0x3cc7b7d6	0.024379652
56	0x3de8e328	0.113714516
57	0xbdb0dc31	-0.08635748
58	0x3e690a32	0.22757795
59	0xbd0eeeec	-0.034895822
60	0xbd50aac8	-0.05094412
61	0x3d018f16	0.031630598
62	0xbd71510a	-0.058915175
63	0x3c77b23b	0.015118177
64	0x3bdb0336	0.0066837324
65	0x3d9f7783	0.07786467
66	0x3dfeacf9	0.12435336
67	0x3d84d580	0.064860344
68	0xbc4fbe95	-0.012679716
69	0x3cdda5e4	0.027056642
70	0x3d8606cf	0.065442674
71	0xbc1f701f	-0.009731322
72	0x3e034641	0.12819768
73	0x3d7624d6	0.060093723
74	0x3c073a03	0.008253577
75	0x3cdb4f58	0.026771232
76	0xbc6bfefe	-0.014404057
77	0x3d3a2a1e	0.045450322
78	0x3df7b00c	0.12094125
79	0x3db44986	0.08803086
80	0xbcb13520	-0.021631777
81	0x3c4c0c2e	0.012454076
82	0x3c211dea	0.009833792
83	0xbdc21ca0	-0.09478116
84	0xbd113e9b	-0.035460096
85	0x3dc15878	0.09440702
86	0xbc7dd939	-0.015493684
87	0x3e1f56e1	0.15560485
88	0x3b1f6d57	0.0024326646
89	0x3d36fae2	0.044672854
90	0x3e163092	0.14666966
91	0x3d684bf8	0.056713074
92	0x3d948653	0.07252183
93	0xbda99eda	-0.08282252
94	0xbd3a9940	-0.045556307
95	0x3d8b4aa7	0.06801348
96	0xbd390e0a	-0.045179404
97	0x3e0b0e95	0.13579781
98	0x3e95ca45	0.29255882
99	0xbe2ec0a6	-0.17065677
100	0x3dff7740	0.12473917
101	0xbe102ad8	-0.14078844
102	0x3cdf129c	0.027230553
103	0x3e822519	0.25418928
104	0x3cd1c0e4	0.025604673
105	0x3e674737	0.2258576
106	0xbe1b02b7	-0.15137754
107	0x3e40e1d2	0.18836144
108	0x3cea9a7d	0.028638119
109	0x3d8d0e50	0.068874955
110	0xba886849	-0.0010407056
111	0x3d90a81e	0.07063316
112	0xbda427f4	-0.08015433
113	0x3f0f1f07	0.5590672
114	0x3e338d8d	0.17534466
115	0x3e416b1f	0.1888852
116	0xbd012df6	-0.031537972
117	0x3e3c6b30	0.18400264
118	0x3e404b33	0.18778686
119	0x3d959f4b	0.07305773

lstm.bias_hh_l0 f4 [120]
0	0x3cfb02e2	0.030641023
1	0x3e33441f	0.17506455
2	0x3e022c18	0.12712133
3	0xbe18d4a3	-0.14924864
4	0xbbed5352	-0.0072425986
5	0xba2b3b45	-0.0006531964
6	0x3dfcbed4	0.12341085
7	0xbde34b7d	-0.110983826
8	0x3e3576e9	0.17721142
9	0xbd588fe3	-0.052871596
10	0x3de7fc6a	0.11327441
11	0x3e3e548c	0.1858694
12	0x3e254c01	0.16142274
13	0x3d721e34	0.059110835
14	0xbe1423f9	-0.14466847
15	0xbdafbeb3	-0.08581295
16	0xbd3d8673	-0.0462708
17	0x3dbd2718	0.09235972
18	0xbd8686e9	-0.06568701
19	0x3db1d9d3	0.08684125
20	0xbda95640	-0.08268404
21	0xbe1a222b	-0.15052097
22	0x3e28ebf5	0.1649626
23	0x3f06adf7	0.526092
24	0x3e323901	0.17404558
25	0xbda0138c	-0.07816228
26	0xbe076a21	-0.13224079
27	0xbc230dff	-0.009952067
28	0x3dcc8c11	0.09987653
29	0x3e6167d3	0.22012262
30	0xbdb63bf2	-0.088981524
31	0x3d0fa823	0.035072457
32	0x3e624041	0.22094823
33	0xbdef223d	-0.11676452
34	0x3c89f81f	0.016841946
35	0xbc86b9b0	-0.016445965
36	0x3e15f6bb	0.14644901
37	0x3e4a949c	0.19783252
38	0xbcb82e35	-0.02248297
39	0xbcd99d6b	-0.02656432
40	0x3dff838a	0.12476261
41	0xbd194767	-0.03742161
42	0xbdfac366	-0.122443005
43	0x3e3c5118	0.1839031
44	0xbe06c0b3	-0.13159446
45	0x3ccfc241	0.025361182
46	0xbda01c7a	-0.078179315
47	0x3df9fe30	0.122066855
48	0x3e31d825	0.17367609
49	0xbd84ae7a	-0.06478591
50	0xbe05d7e1	-0.13070633
51	0xbddae65d	-0.106884696
52	0xbe218722	-0.15774205
53	0x3e21ed20	0.15813112
54	0x3e1cbaa8	0.15305579
55	0xbd57d44c	-0.052692696
56	0x3e1cc719	0.15310325
57	0x3d9c13da	0.07620974
58	0x3c8e636d	0.017381394
59	0x3e09033e	0.13380143
60	0x3d8e7bc0	0.06957197
61	0xbd09355b	-0.03349815
62	0x3d4b0170	0.049561918
63	0xbc00bee3	-0.007858011
64	0xbc069776	-0.008214822
65	0xbd7095fa	-0.05873678
66	0xbe06f42a	-0.13179079
67	0xbd5d2a0a	-0.05399517
68	0xbc6c8ffc	-0.014438625
69	0xbd2b5f08	-0.041838676
70	0xbd9291e9	-0.071567364
71	0x3d3e6a76	0.046488248
72	0xbe196fdc	-0.14984077
73	0xbd8e9da9	-0.06963665
74	0xbd3cdbe0	-0.046108127
75	0xbbb31077	-0.0054646092
76	0x3d17ae4b	0.037031453
77	0xbd68107e	-0.056656353
78	0xbdfecdfa	-0.12441631
79	0xbd47ce93	-0.04878099
80	0x3d3c8c11	0.046032015
81	0x3a881290	0.0010381509
82	0xbc902d05	-0.017599592
83	0x3df0d5e9	0.1175955
84	0x3d16c5d1	0.036809746
85	0xbdaba01c	-0.08380148
86	0x3d823e2b	0.06359514
87	0xbe121277	-0.14264856
88	0x3c9d4177	0.019196255
89	0xbd515f95	-0.051116545
90	0x3dbe6d97	0.09298246
91	0x3d955d09	0.07293136
92	0x3e2ce5d1	0.16884543
93	0x3d56b181	0.052415375
94	0x3e8cb83a	0.27484304
95	0xbd2858c4	-0.04110028
96	0xbc6dbf9c	-0.014511015
97	0x3e524e9e	0.20537803
98	0x3e2ff0a1	0.17181636
99	0xbe017f0a	-0.12646118
100	0x3da2beb5	0.07946531
101	0xbe0d8a7b	-0.13822357
102	0x3cd09da5	0.025465796
103	0x3e48f621	0.1962514
104	0xbdd0a4d2	-0.10187687
105	0xbd9b9ece	-0.07598649
106	0xbd9d684a	-0.07685907
107	0x3dc9a76e	0.09846388
108	0x3b9d1505	0.0047937655
109	0xbe2c58a4	-0.16830689
110	0x3ce12648	0.027484074
111	0x3e163a50	0.14670682
112	0xbcfeab6b	-0.031087598
113	0x3ef8065f	0.4844236
114	0xbd71597d	-0.058923233
115	0x3e04d535	0.12971957
116	0xbe0bfd3a	-0.13670817
117	0x3d3222ae	0.043490104
118	0x3e8ba364	0.27273095
119	0x3e39e6b3	0.18154411

lstm.weight_ih_l0_reverse f4 [120, 1]
0	0x3f30c2c3	0.6904718
1	0x3d2b9ed1	0.041899506
2	0xbdf6da47	-0.12053352
3	0xbe3cfdc3	-0.18456177
4	0xbe6ce523	-0.23134284
5	0x3d796074	0.060883
6	0xbe1cb1f8	-0.15302265
7	0xbd50ece9	-0.051007185
8	0xbdf54f9c	-0.11978075
9	0xbc6d139c	-0.014470007
10	0xbedcd93e	-0.43134493
11	0xbdab9c25	-0.083793916
12	0xbec233e6	-0.3793022
13	0x3cdd754a	0.027033467
14	0xbea34f72	-0.3189655
15	0xbe950666	-0.29106444
16	0x3e8b3dd8	0.2719562
17	0x3d705151	0.0586713
18	0xbda1b3de	-0.07895635
19	0xbd13e9b6	-0.036111556
20	0xbd548d6e	-0.05189269
21	0xbe3a8ea5	-0.18218477
22	0x3e31b899	0.17355575
23	0xbe933555	-0.28751627
24	0xbd88dd4f	-0.06682836
25	0x3d26b317	0.040698137
26	0xbe257e49	-0.16161455
27	0x3df114c3	0.11771538
28	0xbeab25fa	-0.3342741
29	0xbded83fa	-0.11597438
30	0x3f718689	0.9434591
31	0x3d49098d	0.049081374
32	0xbdc2fab7	-0.09520476
33	0xbdb5a2a0	-0.08868909
34	0x3e02834c	0.12745398
35	0xbc8c9538	-0.017160997
36	0xbe6a2f20	-0.2286954
37	0x3daf03b0	0.08545625
38	0x3e0781d8	0.13233125
39	0xbd07ffe7	-0.033203032
40	0xbde6cddb	-0.112697326
41	0xbe54a5f2	-0.20766428
42	0x3dfafb9e	0.122550234
43	0xba08323a	-0.00051954726
44	0xbcdf5398	-0.02726154
45	0xbe9df5de	-0.30851644
46	0x3ea60df6	0.32432526
47	0xbe1e90e1	-0.15484954
48	0x3dcc7089	0.09982402
49	0xbe3ecbed	-0.18632479
50	0xbe153548	-0.14571106
51	0xbe2d21fc	-0.16907495
52	0x3e8541c2	0.26026732
53	0xbdd06276	-0.1017503
54	0x3e3e56dc	0.18587822
55	0xbe25d345	-0.16193874
56	0xbd9ce7ab	-0.07661375
57	0xbe2696f7	-0.16268526
58	0xbde98d49	-0.11403901
59	0x3ea8b537	0.32950756
60	0x40c6ed8e	6.2164984
61	0xbe949759	-0.2902172
62	0x406013e2	3.5012136
63	0xc14fa510	-12.977798
64	0xc12457ec	-10.271465
65	0x3fbaede7	1.4603852
66	0x40977699	4.7332273
67	0x3e914ee2	0.28380495
68	0xbe930a30	-0.2871871
69	0x40667fe7	3.6015565
70	0xbf73fe27	-0.9530968
71	0x40ad6388	5.4184
72	0xc16ee693	-14.931293
73	0x3f0d8c90	0.55292606
74	0xc0cb9625	-6.362078
75	0x401d61a6	2.459085
76	0xc11699a6	-9.412512
77	0xc02bf940	-2.687088
78	0x40c652fd	6.1976304
79	0x4006369d	2.0970833
80	0xc0c4954a	-6.143224
81	0xc01fbc7a	-2.4958787
82	0x3fc3328f	1.5249804
83	0xc03cc2a6	-2.9493804
84	0xbfe30b54	-1.7737832
85	0xbf1e5ab9	-0.6185718
86	0x3ff4bd93	1.9120353
87	0x3f991b2f	1.1961421
88	0xbfd18a56	-1.6370342
89	0x407c5dd1	3.943226
90	0x3f8e5716	1.1120327
91	0xbddf8b13	-0.10915198
92	0x3bbbe25b	0.005733771
93	0xbdb3ba7d	-0.08775804
94	0x3dd2cb3f	0.10292672
95	0x3de058df	0.10954451
96	0xbe638547	-0.2221881
97	0x3d8f4dbc	0.069972485
98	0x3da6b0af	0.081391685
99	0x3e21e093	0.15808325
100	0xbea5ecab	-0.32407126
101	0xbdfbec15	-0.123008884
102	0x3c0daff4	0.0086479075
103	0x3d38d79b	0.045127492
104	0xbec37c14	-0.38180602
105	0xbeb108f6	-0.3457715
106	0x3e98147f	0.29703137
107	0x3dc49f10	0.09600651
108	0x3d45c458	0.04828295
109	0x3a2a0e2d	0.00064870977
110	0xbe4a1046	-0.1973277
111	0xbebcea1b	-0.36897358
112	0x3df62e19	0.12020511
113	0xbcd7446f	-0.026277749
114	0x3cc500cd	0.024048233
115	0x3e419f54	0.18908435
116	0xbe502cb8	-0.20329559
117	0x3dd932b3	0.10605373
118	0xbd3efe7e	-0.04662942
119	0x3d9698c9	0.0735336

lstm.weight_hh_l0_reverse f4 [120, 30]
0	0x3ee203c5	0.441435
1	0xbe5c9f0a	-0.21545044
2	0x3f2292ef	0.6350545
3	0x3f397196	0.72438943
4	0x3f81dbee	1.0145242
5	0x3daa1dbf	0.08306455
6	0xbea167b6	-0.31524438
7	0x3d7cc40f	0.061710414
8	0x3ed60c8e	0.41806453
9	0x3f1ae5f2	0.6050712
10	0x3f5cda54	0.8627064
11	0x3ef1beff	0.4721603
12	0x3ef9a292	0.48756844
13	0x3e90bea7	0.28270456
14	0xbecb1627	-0.39665338
15	0x3ec8a1af	0.39185855
16	0x3e9c32d9	0.30507544
17	0xbf4d3fca	-0.8017546
18	0x3dde1299	0.10843391
19	0x3f864ea1	1.0492746
20	0xbd119ec7	-0.035551812
21	0xbee8e457	-0.4548671
22	0xbe1844d3	-0.14870004
23	0x3dd03e5d	0.10168145
24	0xbe668030	-0.22509837
25	0x3ec3e516	0.38260716
26	0x3ec19a31	0.3781295
27	0x3f1de9fe	0.6168517
28	0xbe6264d5	-0.22108777
29	0x3f447049	0.76733834
30	0xbe9a63ff	-0.30154416
31	0x3e11ae93	0.14226751
32	0xbe6b9a14	-0.23007995
33	0x3e5ddbff	0.21665953
34	0x3d78bc0b	0.060726207
35	0xbe5f9219	-0.21833076
36	0x3d24cd6c	0.040234968
37	0x3eccb279	0.39979914
38	0xbf0ebe78	-0.5575938
39	0xbe61a906	-0.22037134
40	0xbf0a3a3d	-0.53995115
41	0xbdf36806	-0.11885075
42	0x3d2297fc	0.039695725
43	0xbd347cb0	-0.044064224
44	0x3bccae59	0.00624637
45	0xbde8400f	-0.11340343
46	0x3d108ba5	0.035289425
47	0x3f3c8343	0.7363779
48	0x3ebd2b2f	0.3694701
49	0xbe297dc7	-0.16551886
50	0x3df48b39	0.11940617
51	0x3e84ab69	0.25912026
52	0x3d82f831	0.06394995
53	0xbe88ae91	-0.26695684
54	0xbea0e721	-0.31426337
55	0xbec0efb3	-0.37682876
56	0x3ec8b583	0.39200982
57	0xbf11c1a8	-0.5693612
58	0xbe1c651f	-0.1527295
59	0xbe265413	-0.1624301
60	0xbec9ebbb	-0.3943766
61	0xbed1b779	-0.4096029
62	0x3e136c1a	0.14396706
63	0x3e32b921	0.17453434
64	0x3e5072b9	0.20356263
65	0xbd60db1f	-0.05489647
66	0x3e31d029	0.17364563
67	0xbe07b595	-0.13252862
68	0xbe21604a	-0.15759388
69	0xbe036287	-0.12830554
70	0xbe96d010	-0.29455614
71	0x3dd68703	0.1047497
72	0x3ea21720	0.31658268
73	0xbd46f6e9	-0.048575316
74	0xbd5b6966	-0.053567313
75	0x3e80ab95	0.25130907
76	0x3e1b4246	0.15162
77	0xbdaf029b	-0.08545419
78	0xb9e8fb5d	-0.00044437769
79	0xbda8b505	-0.08237652
80	0xbd5ed809	-0.054405246
81	0xbca96659	-0.020678686
82	0x3e18c2d6	0.14918074
83	0xbd9a9751	-0.075483926
84	0xbcf4f21b	-0.029900601
85	0x3d7eb3ae	0.062183075
86	0x3e813ad8	0.25240207
87	0x3e99b4ed	0.30020848
88	0x3e35231a	0.17689171
89	0xbd25f018	-0.040512174
90	0x3cacf90b	0.021114847
91	0x3eaa1efe	0.3322677
92	0x3aa66410	0.0012694616
93	0x3e7d51eb	0.2473828
94	0x3e3706c2	0.17873672
95	0xbe3cf904	-0.18454367
96	0x3d304dbd	0.043042887
97	0x3ed7765b	0.42082486
98	0xbe94524f	-0.28969046
99	0xbee04823	-0.43805036
100	0xbe98f2d5	-0.29872766
101	0xbe94fbbc	-0.29098308
102	0x3c470ffa	0.012149805
103	0x3ceb7628	0.028742865
104	0x3e1dc3bf	0.15406702
105	0x3e7aa77a	0.2447795
106	0x3e21cfbe	0.15801904
107	0x3f02e734	0.5113404
108	0x3d83db3a	0.064382985
109	0xbec48a53	-0.38386783
110	0x3e94f0d7	0.29089996
111	0x3e71a491	0.23597933
112	0x3d066aaf	0.032816585
113	0x3deb713c	0.11496207
114	0xbe675429	-0.22590698
115	0xbe60867c	-0.21926302
116	0x3c240553	0.010011035
117	0xbe641261	-0.22272636
118	0xbea20f0c	-0.31652105
119	0xbed537dc	-0.4164418
120	0xbda69793	-0.08134379
121	0x3ef686fc	0.4814986
122	0xbe731a9f	-0.23740624
123	0x3ebfb5dc	0.37443435
124	0x3e9a3a6f	0.30122706
125	0xbe1b90de	-0.15191981
126	0xbdf0d790	-0.11759865
127	0x3ec5d255	0.38637033
128	0xbeb6bae8	-0.35689473
129	0xbddbba29	-0.107288666
130	0xbf0ba733	-0.54552
131	0xbe00bc12	-0.12571743
132	0xbe61b8cd	-0.22043152
133	0x3deb85ba	0.11500116
134	0x3e94bc1a	0.2904976
135	0x3d07951f	0.033101197
136	0x3e1427a2	0.14468244
137	0x3e8c3f99	0.2739227
138	0x3d9024e9	0.0703829
139	0xbef67d06	-0.4814226
140	0x3ebce452	0.36892945
141	0x3efc5b00	0.49288177
142	0x3dc97cdf	0.098382704
143	0x3e4c679d	0.199614
144	0xbded2b66	-0.11580543
145	0xbef8c216	-0.48585576
146	0xbd5641ba	-0.052308775
147	0xbebe0a75	-0.37117353
148	0xbdbfec51	-0.09371246
149	0xbedc695c	-0.43049133
150	0xbe4fa626	-0.20278224
151	0x3e0ebb63	0.1393867
152	0x3ca0b2cd	0.019616509
153	0xbe3d4cf6	-0.1848639
154	0xbc783ab0	-0.015150711
155	0xbe2c69b9	-0.16837205
156	0x3e297c16	0.16551241
157	0x3e6f5718	0.23373067
158	0xbe293db1	-0.1652744
159	0x3d1e7678	0.0386872
160	0xbe4c6480	-0.19960213
161	0x3d1a3136	0.037644587
162	0xbe23c9f4	-0.15995008
163	0x3dbf1d17	0.0933172
164	0x3d988893	0.074479245
165	0x3e6a8a61	0.2290435
166	0x3cffa317	0.031205697
167	0xbdb2da25	-0.08733014
168	0xbe11535d	-0.14191957
169	0x3defa94f	0.11702215
170	0x3e419c0c	0.18907183
171	0xbda057c0	-0.07829237
172	0xbe1ba19f	-0.15198372
173	0x3d09ee50	0.033674538
174	0xbc2b091a	-0.010439182
175	0x3e097ee5	0.13427313
176	0x3e382026	0.17981014
177	0x3d396c61	0.045269374
178	0x3e4791d4	0.19489223
179	0x3d87b179	0.06625647
180	0xbec59114	-0.38587248
181	0xbdbcf793	-0.092269085
182	0x3d132842	0.035927065
183	0xbe0ca670	-0.13735366
184	0x3d82cbfb	0.063865624
185	0xbe2ee41b	-0.17079203
186	0x3e014aa9	0.12626137
187	0xbe09e61f	-0.1346669
188	0xbe71052b	-0.23537128
189	0x3e747777	0.23873697
190	0xbe87bd74	-0.2651173
191	0xbded694f	-0.11592352
192	0xbce28dee	-0.027655568
193	0xbafde66c	-0.0019371039
194	0xbd0e54b1	-0.034748737
195	0xbe0eca62	-0.1394439
196	0xbdfb631c	-0.12274763
197	0x3d7b0c16	0.061290823
198	0xbcbd1014	-0.023078956
199	0xbd1047dc	-0.03522478
200	0x3e2937c7	0.16525184
201	0xbe9af84f	-0.3026757
202	0xbcf861d0	-0.030320078
203	0xb9daf7a6	-0.00041764713
204	0x3aaa1fdc	0.0012979466
205	0xbd9174bc	-0.071023434
206	0x3e4dbb51	0.20090987
207	0xbe689ac4	-0.22715288
208	0x3db36d95	0.087611355
209	0x3cd96810	0.026538879
210	0x3e2abdb4	0.16673928
211	0x3eabe455	0.3357264
212	0x3c1a2ef8	0.009410612
213	0xbcdabc29	-0.02670105
214	0x3def8b73	0.1169652
215	0xbe8d9775	-0.27654615
216	0x3de284df	0.110604994
217	0x3ee15ef1	0.44017747
218	0xbda9cba0	-0.082907915
219	0x3d9e8c37	0.077415876
220	0x3c9c93f8	0.019113526
221	0x3d509e84	0.050932422
222	0xbc6c5fec	-0.014427166
223	0x3d0ffe23	0.035154473
224	0xbd9be65b	-0.07612296
225	0xbe43e615	-0.19130738
226	0xbd6ef746	-0.058341287
227	0x3e3389d6	0.17533049
228	0xbe1a4765	-0.15066297
229	0xbdf4e518	-0.11957759
230	0x3ea735de	0.32658285
231	0xbd6f76a4	-0.058462754
232	0x3e370309	0.17872252
233	0x3d2d13cc	0.042255208
234	0xbe48f410	-0.19624352
235	0xbdc8fe37	-0.09814113
236	0x3dd33bf6	0.10314171
237	0xbeb8ce88	-0.3609507
238	0x3e6cf6ca	0.23141018
239	0x3d3a1c93	0.045437407
240	0x3d125b93	0.035731863
241	0xbe733ae2	-0.23752931
242	0xbe08bc3d	-0.13353057
243	0x3e59368e	0.21212217
244	0x3eb425f7	0.35185215
245	0xbc884ec5	-0.016639123
246	0xbd4d8488	-0.05017522
247	0xbd2d976f	-0.042380746
248	0x3c4ab56d	0.012372357
249	0xbe60d219	-0.21955146
250	0xbea8472a	-0.32866794
251	0x3dc77d6c	0.09740719
252	0x3e7748b3	0.24148826
253	0x3dd41ea8	0.1035741
254	0x3e065797	0.1311935
255	0x3dc3a24f	0.09552442

lstm.bias_ih_l0_reverse f4 [120]
0	0xbc74d7c7	-0.014944023
1	0xbd9c188d	-0.0762187
2	0xbe099c8e	-0.13438627
3	0x3f8990cd	1.0747315
4	0x3f167e11	0.5878611
5	0xbd07aee4	-0.033125773
6	0x3d521695	0.051291067
7	0x3e0bc263	0.13648371
8	0xbdd153c2	-0.10221054
9	0xbdb6ccad	-0.089257576
10	0xbfa6f1ba	-1.3042519
11	0x3e30a1bd	0.17249198
12	0x3fa8558a	1.3151104
13	0xbe9ca03c	-0.30591
14	0x3efa31f5	0.4886624
15	0xbf779a12	-0.9671947
16	0x3ddc1a47	0.107471995
17	0xbeb298c7	-0.34882185
18	0xbeb2ce74	-0.34923136
19	0xbeceed44	-0.40415394
20	0xbe3cd5fc	-0.18441004
21	0xbe892dea	-0.26792842
22	0xbe8e36fb	-0.27776322
23	0xbf781ef6	-0.9692224
24	0xbe134a61	-0.14383842
25	0xbe678d0c	-0.22612399
26	0xbe1e4abc	-0.15458196
27	0x3e484022	0.19555715
28	0xbfd45ae2	-1.6590235
29	0xbf72002a	-0.945315
30	0xbf7abbd2	-0.9794284
31	0x3e8ff7c3	0.28118715
32	0x3dc62c06	0.096763656
33	0xbef27b62	-0.4735976
34	0xbdc92d49	-0.098230906
35	0x3e045da3	0.12926345
36	0x3e157760	0.14596319
37	0xbe5031cb	-0.20331495
38	0x3eda8615	0.4268042
39	0x3ec89e3a	0.39183217
40	0x3f8ef9f7	1.1170033
41	0x3d9492c9	0.072545595
42	0xbec3f969	-0.38276222
43	0xbf0ae2ce	-0.54252326
44	0xbe62a9a0	-0.2213502
45	0x3f9555b7	1.1666783
46	0xbe35e9f0	-0.17765021
47	0x3e9273c8	0.2860396
48	0xbe7a5063	-0.24444728
49	0x3f173d14	0.5907757
50	0x3debc68f	0.115124814
51	0x3ee3f4b5	0.44522634
52	0x3d9f1a04	0.07768634
53	0x3f5dd1ee	0.8664845
54	0x3f0e4dec	0.5558765
55	0x3c9f8135	0.01947079
56	0x3e35823a	0.17725459
57	0xbf5a8b94	-0.8536923
58	0x3fd7a7d4	1.6848092
59	0x3f981d35	1.1883913
60	0xbe0340ac	-0.12817639
61	0x3d91a8cf	0.07112276
62	0xbdf5b6fa	-0.11997791
63	0x3e20566c	0.15657967
64	0xbdc4531d	-0.09586165
65	0xbe1a2103	-0.15051655
66	0xbc827905	-0.015926847
67	0xbe831eec	-0.2560953
68	0xbd6e671d	-0.058203805
69	0x3e0d7689	0.13814749
70	0x3de353ab	0.11099943
71	0xbe19bd55	-0.1501363
72	0xbe4fd080	-0.2029438
73	0xbcb94311	-0.022614988
74	0x3e5e36f4	0.2170065
75	0x3d2484b2	0.04016561
76	0xbea1f8b1	-0.3163505
77	0x3e061d46	0.13097104
78	0x3e4e9677	0.20174585
79	0xbdc1ce6f	-0.09463202
80	0xbd641a14	-0.055688933
81	0x3d1c698a	0.038186587
82	0x3e1d1a0e	0.1534197
83	0x3e72a3d6	0.23695311
84	0x3e5db990	0.21652818
85	0x3e8bebb1	0.27328256
86	0x3d72fcf2	0.05932326
87	0x3e9be794	0.30450118
88	0xbd8be69d	-0.06831095
89	0x3ebb9b2e	0.3664183
90	0x3e5b316f	0.21405576
91	0xbe2d1231	-0.1690147
92	0x3cb40d16	0.021978896
93	0x3fae4a54	1.3616433
94	0x3f15f1ff	0.5857238
95	0xbce920cc	-0.028458022
96	0x3e01bc66	0.12669525
97	0x3dfb3616	0.122661754
98	0xbdcff767	-0.1015461
99	0xbf1b6991	-0.60707957
100	0xbda8a94c	-0.08235416
101	0x3e115895	0.14193948
102	0x3fbdabef	1.4818095
103	0xbf16c315	-0.5889142
104	0x3ed6fd9b	0.4199036
105	0x3dd22bcf	0.10262262
106	0x3eb67d13	0.356423
107	0xbe466456	-0.19374213
108	0x3dba8962	0.09108235
109	0xbf28ff4f	-0.6601457
110	0xbebc2a1a	-0.3675087
111	0xbeb1f4bc	-0.3475703
112	0xbde58a1b	-0.11207982
113	0x3c4d80b8	0.012542896
114	0xbefea282	-0.4973336
115	0xbf022332	-0.50834954
116	0xbca8533b	-0.0205475
117	0xbee9aae1	-0.45638183
118	0x3cc17b66	0.023618411
119	0x3df3bf26	0.11901693

lstm.bias_hh_l0_reverse f4 [120]
0	0x3cf8863b	0.030337444
1	0xbdf8a17c	-0.12140176
2	0xbdd5ae90	-0.10433686
3	0x3f894ca7	1.0726517
4	0x3f149d25	0.58052284
5	0xbe3bab38	-0.18327034
6	0x3dfbd969	0.12297327
7	0x3e955b06	0.29171008
8	0xbec00db1	-0.37510446
9	0xbe22359c	-0.15840763
10	0xbfa9cca0	-1.3265572
11	0x3e1a03b5	0.15040477
12	0x3fb80bb1	1.4378568
13	0xbe915974	-0.2838856
14	0x3ea3ec74	0.32016337
15	0xbf9373cb	-1.1519712
16	0x3eae3718	0.34026408
17	0xbcc9723d	-0.024590606
18	0xbda880d8	-0.082277
19	0xbe6d6fbe	-0.23187158
20	0xbe839c42	-0.25705153
21	0xbe618dac	-0.220267
22	0xbe34b6e0	-0.17647886
23	0xbf5fd147	-0.87428707
24	0xbe514629	-0.2043692
25	0xbe52e86a	-0.20596471
26	0xbd4337bb	-0.04766057
27	0x3eb4ebd2	0.35336167
28	0xbfebcd50	-1.8422031
29	0xbf781790	-0.96910954
30	0xbf65d6a1	-0.8978062
31	0x3e29d70e	0.16585943
32	0x3e797f3a	0.2436494
33	0xbf46afc5	-0.77611953
34	0xbe401d15	-0.18761094
35	0x3d377bb4	0.044795707
36	0x3e786a73	0.24259357
37	0xbe84313d	-0.25818816
38	0x3ec1b60b	0.378342
39	0x3f0beee5	0.546614
40	0x3f84d2b0	1.0376797
41	0x3d531356	0.051532112
42	0xbe9d66e8	-0.30742574
43	0xbf0bf8a3	-0.54676265
44	0xbec8c8ab	-0.39215598
45	0x3fad8c56	1.3558452
46	0xbe099f54	-0.13439685
47	0x3eb533a7	0.3539097
48	0x3c5737c4	0.013135854
49	0x3f190824	0.59778047
50	0x3d330751	0.04370815
51	0x3f1210e5	0.5705703
52	0xbe2af1cb	-0.16693799
53	0x3f83dfd6	1.0302684
54	0x3f2ab9db	0.6668984
55	0x3ea9161e	0.33024687
56	0x3e6d0e0f	0.23149894
57	0xbf6982a3	-0.9121496
58	0x3fe54212	1.7910788
59	0x3f95c657	1.1701154
60	0x3d1d6e3c	0.038435206
61	0xbd95c082	-0.073121086
62	0xbe602ee8	-0.21892893
63	0x3e28447e	0.16432378
64	0xbea06fa0	-0.31335163
65	0x3c9b54f7	0.018961413
66	0x3dde8d40	0.10866785
67	0xbe9616a6	-0.29314154
68	0x3cbabb65	0.022794435
69	0x3d0fb1d1	0.03508169
70	0x3eb977f4	0.3622433
71	0xbda43519	-0.0801794
72	0x3bd7c18c	0.006584352
73	0xbdf1c357	-0.11804836
74	0x3da7f8be	0.08201741
75	0xbe95a1a1	-0.29224876
76	0xbdb44ae8	-0.0880335
77	0x3dc932dd	0.098241545
78	0xbdb0d170	-0.08633697
79	0xbe972dbd	-0.29527083
80	0xbe7ba9d1	-0.24576499
81	0x3e029cc2	0.12755111
82	0x3e525242	0.20539191
83	0x3e321105	0.17389305
84	0x3cd82aee	0.026387658
85	0x3e7c5cbb	0.24644749
86	0xbe577c9a	-0.21043625
87	0x3e9d2b61	0.30697158
88	0xbdb4c22c	-0.08826098
89	0x3e2819dd	0.16416116
90	0x3ea59e68	0.32347417
91	0xbddea9b7	-0.10872214
92	0x3d7b21a7	0.06131139
93	0x3f81677e	1.0109708
94	0x3f314dc4	0.69259286
95	0xbe4b513b	-0.19855206
96	0x3d2cef2f	0.04222029
97	0xbcb5e2cf	-0.022202877
98	0xbea5b17e	-0.32361978
99	0xbf59af05	-0.85032684
100	0x3e60a7e0	0.21939039
101	0x3d78e769	0.060767565
102	0x3fc99b7e	1.5750577
103	0xbefe2630	-0.4963851
104	0x3f17c5cd	0.59286195
105	0xbd8ce587	-0.06879716
106	0x3ee431c6	0.44569224
107	0xbe80f891	-0.2518964
108	0xbdb54769	-0.08851511
109	0xbeb16aff	-0.34651944
110	0xbee5483a	-0.44781667
111	0xbd92b2a9	-0.07162983
112	0xbe80cb21	-0.25154975
113	0x3e85151c	0.25992668
114	0xbf10006d	-0.5625065
115	0xbee9143d	-0.45523253
116	0xbb4d053c	-0.0031283638
117	0xbeca2b39	-0.394861
118	0x3dff174a	0.12455614
119	0x3e0b59d4	0.13608485

linear.weight f4 [1, 60]
0	0x3d584922	0.05280412
1	0xbe53b5b6	-0.20674786
2	0xbdded3d6	-0.10880248
3	0x3d71b2c2	0.059008367
4	0xbed624e1	-0.4182501
5	0xbdd855e2	-0.10563256
6	0xbe4a4c39	-0.19755639
7	0xbdcc3c3d	-0.09972427
8	0xbed9e29a	-0.42555696
9	0xbd440db5	-0.047864635
10	0x3ea434f9	0.32071665
11	0x3e0f4295	0.13990243
12	0xbe3ab095	-0.18231423
13	0xbec3db7b	-0.38253388
14	0xbde07299	-0.10959358
15	0xbd0cef03	-0.034407627
16	0xbdaf8105	-0.085695304
17	0xbe5862bc	-0.21131414
18	0x3ca6524a	0.02030291
19	0x3cd0be47	0.025481356
20	0x3e2f1be5	0.17100485
21	0x3e56e89f	0.20987175
22	0x3e50d9a7	0.20395528
23	0xbf18b30c	-0.59648204
24	0xbe0c3200	-0.13690948
25	0x3d912081	0.07086278
26	0x3e820053	0.25390872
27	0xbdb33215	-0.08749787
28	0xbecc19be	-0.3986339
29	0x3e450e82	0.19243816
30	0x3fc481d4	1.535212
31	0x3f4e6d01	0.80635077
32	0x3c24523a	0.01002937
33	0x3f155318	0.58329916
34	0x3f2c871a	0.6739365
35	0xbe12b7ee	-0.14327976
36	0x3e61910d	0.22027989
37	0x3e091a48	0.13388932
38	0xbe629d55	-0.2213033
39	0x3fedceb7	1.8578709
40	0x3e5c315f	0.21503209
41	0x3eb73e44	0.35789692
42	0xbf855a7e	-1.0418241
43	0xc021033c	-2.5158224
44	0xbe75e061	-0.24011375
45	0x3efc33c6	0.4925825
46	0xbf291e35	-0.6606172
47	0xbf9476a7	-1.159871
48	0xbf935f94	-1.1513543
49	0xbdfb42f8	-0.12268633
50	0xbf7693b5	-0.96319133
51	0xbd061a08	-0.03273967
52	0xbd6aa6d6	-0.057288013
53	0xbdee21b9	-0.11627526
54	0xbfecb3a0	-1.8492317
55	0x3f8187bf	1.0119551
56	0x3d360544	0.044438615
57	0x4055ae49	3.3387625
58	0xba84da20	-0.0010135807
59	0x3f363c07	0.71185344
